saved_models/meta_detector.pt (torch, 302955 bytes, 11 tensors)

fc1.weight f4 [128, 64]
00000000: 0558 4abc 508f 04be 0eea bcbd 1ecd 09bd
00000010: a540 253d b990 d33d 1925 30bd b717 2bbc
00000020: ce5f f53d 1de9 babd fbda f1bd b360 ad3c
00000030: 3c3f 823d 1e7f fd3d 7c04 06bc 5bfc 9ebd
00000040: 7328 dbbd 136c d1bd b05c 06be 18fe 8cbd
00000050: e7ee 053d d23a f1bc e0aa 1c3d 73be 8dbd
00000060: 080f 893d 1363 dc3d d85c bc3d a55c 39bd
00000070: 3470 423c edd3 b43d 7073 b13d a7f7 d7bd
00000080: dae3 e93d a918 13bd 4f63 ae3d 6bc7 9d3d
00000090: c2f2 b83d 3b22 0ebe 0946 dcbd 3c84 973d
000000a0: 63b6 473d 8ffb d83c 45a3 11bd 1e86 36bd
000000b0: 5093 e8bd 1276 8cbc e91b 2b3d 9358 47bd
000000c0: 3e32 9cbd 35ff 483d 0394 b8bc a097 c6bd
000000d0: bbe1 10be 4fa9 e43c a964 85bd 954b d03c
000000e0: 5ae5 153d a66b 2b3d 2a0d f43d 9b9f 1abd
000000f0: 848f 78bb c205 293d 766d 753d cc4a 17bb
00000100: 6663 4e3d 917c 7cbd b3f0 0cbd afdc abbc
00000110: c136 18bd cad1 d93c dbea acbd bbc2 19bd
00000120: 04b7 9ebc e263 f23c 0b97 b7bc 41cb bcbd
00000130: 68cd 953d dcbe cd3d 79eb 81bd 027d b2bd
00000140: 3a00 2ebd 1fbf a93d 2bfe 373d c81a 5fbd
00000150: 4500 35bc da3a aabd 942c 94bb 7a6c 66bc
00000160: 5816 fe3d 4e37 9ebd fb79 50bd fb2b 6e3d
00000170: 3618 003d b561 323d 81fe b63d 35bd 9a3d
00000180: e6ac 923d bcdb 083e 8874 85bd a882 333d
00000190: af7f ca3c 8f56 a0bb 0cab c83d 81a3 cc3d
000001a0: a27c fbbd 50d9 03be c6b3 453d b4b6 72bd
000001b0: 98db 5bbd 6b36 fdbb 7d2d fd3d ae02 54bc
000001c0: 08f3 ecbd 8cba c83d 9f51 e93d d2a2 cabd
000001d0: 84ce 7dbc 7a7f ac3d e18c 4ebb 3633 0cbe
000001e0: fbd7 e9bd 3176 68bd 3aec b6bd ebba 543d
000001f0: b530 a43d 7b8f 963c d2f7 863d 19fc a4bd
00000200: 5193 59bd 5734 babb bcf7 03be 3f2d 8abd
00000210: 4d2f c33d 9d35 673d c9e8 b73c 6a69 e8bc
00000220: d6aa 863d 4331 9ebd 8424 f73d 1969 af3d
00000230: 71a2 a9bd 6750 033d a98a 843d 7021 2f3d
00000240: 60e4 fa3d 113a 73bd 414a aabd d358 f9bc
00000250: 8a2a 85bd e865 c23d 2799 c3bd 2ac5 693b
00000260: 78f7 1c3d 00ee b33b 17b3 47bd 1b85 a3bd
00000270: cfc3 e93c 0957 8b3c df39 933d 32e2 9bbd
00000280: e9e8 5d3d 1e20 aabd 2a90 b43c f9b6 75bd
00000290: f749 f03c 07d0 4b3d 896e dabd a7d4 8dbd
000002a0: f9a7 143d ec4f c63d 8ac8 54bc 90f7 ef3d
000002b0: 179a dabd 41dd c63c 7f42 073c 65ba 553d
000002c0: 098e 92bc fd06 d7bd 1a95 f9bd f9d0 86bc
000002d0: 284d ec3c df91 bdbd e390 bfbc 71ed 45bc
000002e0: 7782 c8bd 9504 59bc 6f50 a4bd 0ac6 f73d
000002f0: 50f0 7a3c 748e 903d 76b4 fdbd e5b8 f43d
00000300: efdb 27bb 9ce4 c5bd 43de fe3c a8e0 ed3c
00000310: 9987 0f3c 8881 1abd 108c d3bb 3393 2bbd
00000320: 2a7d 233d 268c 123d 1621 eb3d 6e18 953d
00000330: 8e28 32bd aa5a aebb 02ee e03d cf91 40bd
00000340: aef8 98bd 8cd3 ba3c fe78 b03d d328 78bd
00000350: 01d2 753d 7116 b0bd 241a 093d 41fc 90bd
00000360: abf3 49bd 2eef 903c 78e5 413d e539 0a3d
00000370: 6257 8f3d 4268 edbd 3cb3 b03d d984 db3b
00000380: 2eb4 ae3b 7dba a73d 6105 9d3d e539 00be
00000390: 7b86 823c 04ba b33d 7b7d c63d 3b46 82bd
000003a0: 818e 27bd 584a 13bd 9803 583d 02cc 203d
000003b0: 2757 67bd 0934 d5bc eab8 f4bd e9d5 1ebc
000003c0: c6f4 d5bd 7f10 03be 1659 193d f2bd ae3d
000003d0: a386 c8bd 5cc6 bd3d a756 f6bd b419 c7bd
000003e0: 60a6 5dbd 5cf6 ddbc e665 c03c c6b0 3b3d
000003f0: 2a53 8cbd 4ce4 033e fd54 cfbd fb91 ccbd
-0.012350087 -0.12945294 -0.0922433 -0.03364288 0.040344853 0.10330338 -0.04300413 -0.010442666
0.11981164 -0.09126494 -0.11809345 0.021164274 0.06359717 0.12377761 -0.00817978 -0.07762977
-0.107010745 -0.10225692 -0.13121295 -0.06884402 0.03269854 -0.029446993 0.038248897 -0.06921091
0.0669232 0.107610844 0.09197396 -0.04525437 0.011867572 0.08829484 0.08664596 -0.10545283
0.11420412 -0.03591219 0.08515035 0.077040516 0.090306774 -0.13880245 -0.10755546 0.073982686
0.048757922 0.02648714 -0.035556097 -0.044561498 -0.11356223 -0.017146144 0.041774664 -0.048668455
-0.076267704 0.04907151 -0.022531515 -0.09696889 -0.1414861 0.027912764 -0.0651334 0.025426665
0.03659568 0.04185071 0.11916573 -0.037749868 -0.003792734 0.041265257 0.059918843 -0.0023085354
0.050387762 -0.061642233 -0.034409236 -0.020979254 -0.037161592 0.026589293 -0.084432326 -0.037539225
-0.019374378 0.029588643 -0.02241089 -0.09218455 0.07314569 0.10046169 -0.06343741 -0.087152496
-0.042480685 0.082884066 0.044920128 -0.0544689 -0.011047428 -0.08312006 -0.0045219157 -0.014063949
0.124066055 -0.07725392 -0.05089758 0.05814741 0.03127309 0.043550212 0.089352615 0.075556196
0.07161884 0.13365072 -0.06516367 0.043825775 0.024719087 -0.004893131 0.097982496 0.099921234
-0.12279631 -0.12875867 0.04826715 -0.05925627 -0.053676218 -0.0077274344 0.12362192 -0.012940092
-0.11569792 0.09801206 0.11392521 -0.09894337 -0.015491132 0.08422752 -0.0031517076 -0.1369141
-0.11418148 -0.05675334 -0.089317754 0.05193607 0.08017103 0.018378964 0.06590237 -0.08055896
-0.053119007 -0.005682509 -0.12887472 -0.06746911 0.09530506 0.056447614 0.022449868 -0.028370578
0.06575553 -0.0772424 0.12067512 0.08564968 -0.08282936 0.0320591 0.0647176 0.042756498
0.1225059 -0.05938155 -0.08314944 -0.030437863 -0.06502254 0.09492093 -0.09550696 0.0035670497
0.038321942 0.0054910183 -0.048754778 -0.07984372 0.028535752 0.017009275 0.071887724 -0.07611503
0.0541772 -0.08306907 0.022041399 -0.05998895 0.029332144 0.049758937 -0.10665614 -0.06925326
0.036293004 0.09683213 -0.012987265 0.11717141 -0.106739216 0.024275424 0.0082556 0.052179713
-0.017889993 -0.1049938 -0.12186642 -0.016457068 0.028845385 -0.09256338 -0.023384517 -0.012080536
-0.09790509 -0.013245721 -0.08023154 0.1209832 0.015316084 0.07058421 -0.12387936 0.11949328
-0.0025613268 -0.096627444 0.031111842 0.029037789 0.008760356 -0.037721187 -0.0064559057 -0.041888427
0.039914288 0.035778187 0.1148092 0.0728005 -0.043495707 -0.0053208666 0.109828964 -0.047014054
-0.07469307 0.022805952 0.086168274 -0.060585808 0.06001473 -0.0859803 0.033472195 -0.070793636
-0.049304646 0.017692175 0.04733798 0.03374662 0.06999089 -0.11592151 0.08627936 0.0066991863
0.0053315377 0.08189867 0.076670416 -0.12522085 0.015933266 0.08775714 0.09691902 -0.06361052
-0.040907387 -0.03595957 0.052737802 0.039257057 -0.0564796 -0.026025789 -0.11949332 -0.009694555
-0.104470775 -0.12799262 0.037438475 0.08532323 -0.09791305 0.0926635 -0.120282464 -0.09721699
-0.054113746 -0.027095012 0.023486089 0.04582288 -0.068518 0.12880057 -0.10123632 -0.09988781

fc1.bias f4 [128]
00000000: d03d 96bd 7314 01be d982 96bb 21bd b03a
00000010: 8133 47be fe56 c0bd d41b 9d3d de07 39bd
00000020: 049f 213e 1250 083c 63e0 dd3d 8384 613d
00000030: 1b19 893d 69fe 58be 87bb 9d3d d35e 31be
00000040: b259 1c3c 5749 0fbe ea10 3e3d 0917 4cbd
00000050: 55c2 33bd bfa5 abbd 2b1c d2bd fb7a 97bd
00000060: 2480 ccbd 2145 cfbd 5264 993c bf53 b7bd
00000070: 70db 93bc 7fbd 2cbc 7659 db3d 88f7 c33d
00000080: d150 91bd 7093 043d 010d 08be 69d6 fbbd
00000090: e9f8 6f3d a378 463e 2eb9 2d3e baf2 1f3e
000000a0: 0134 5cb9 0983 d03c 29c2 d63d 26bc d33d
000000b0: cdbb dabd 2a59 4d3d aaae 9d3d ecf8 c23d
000000c0: 2020 7b3d 7118 8bbd 9a03 af3a 2c80 193e
000000d0: 5058 9dbd d3e0 7dbd 5e02 f0bd d738 013d
000000e0: 883b 583d 04fa 12bd 2941 40bd 5b59 f63c
000000f0: caa4 90bc 9cea 933c 2ece a4bc d3ed 22be
00000100: f1a1 063e 08fb 813d c439 e63d 0c09 fabd
00000110: 2a44 b6bd 3259 fcbd f141 0e3b 99c9 7c3d
00000120: f46e b0bd 36ec ab3d b061 e1bd e708 713d
00000130: dcf8 7dbd fe07 94bd bba8 a5bd 065a 78bb
00000140: 84b2 4cbc 64dc 28bd 8a58 6d3c ee4f d93d
00000150: 136a b93c 729b 043e 377e 453d a707 a13d
00000160: 710a a93c 774e c73d 0098 c53d 7e57 50bd
00000170: 7136 a3bd 5f24 763d 8532 a63d b4f1 013d
00000180: 6696 283d bcca afbd 9ed8 d33b efed e83d
00000190: 00ca ac3d af8c fc3c 35f4 16be 5eb8 2a3e
000001a0: 4687 0f3c 149a 02be 4af8 b03d f387 b4bd
000001b0: 0d07 cfbd 4ab7 e4bd 68c1 b9bd e35b 8ebd
000001c0: ff2f fabd e4fc c73c d38f 9bbd dcd9 d23d
000001d0: c6d3 d83d 50a3 333d 44e1 a0bd 7939 d3bd
000001e0: 047f c83d b32e 21bd 41f4 583d 6238 20be
000001f0: 3cc6 a5bd f99d 7dbc ad62 313d 6884 0ebe
-0.073360085 -0.12605457 -0.004593235 0.0013484099 -0.19453241 -0.093915924 0.076713234 -0.04517352
0.15783316 0.0083198715 0.10833814 0.055058014 0.066942416 -0.211908 0.077017836 -0.17321329
0.009542869 -0.1399282 0.04640285 -0.049826656 -0.0438865 -0.08381223 -0.10259279 -0.073965035
-0.099853784 -0.10120607 0.018724594 -0.0895152 -0.018048972 -0.010543226 0.10710423 0.09568697
-0.07095493 0.03236717 -0.1328621 -0.12296755 0.05858699 0.19381957 0.16965172 0.15619937
-0.00021000208 0.025453107 0.10486252 0.10338621 -0.106803514 0.05013386 0.0769933 0.09520134
0.061309934 -0.06791771 0.0013352514 0.149903 -0.0768286 -0.061981987 -0.117192015 0.031548347
0.05279115 -0.035882965 -0.04693714 0.030071905 -0.017656703 0.018056206 -0.020117845 -0.15911035
0.13147713 0.063467085 0.11241487 -0.12208757 -0.0889972 -0.123217 0.0021706785 0.061715696
-0.08614913 0.08394663 -0.110049605 0.05884638 -0.06200491 -0.07228087 -0.080888234 -0.0037895455
-0.012493733 -0.041225806 0.014486441 0.106109485 0.022633588 0.12949923 0.04821607 0.07862788
0.020634862 0.09731763 0.09648132 -0.05086469 -0.07969368 0.06009328 0.081151046 0.031724647
0.041159056 -0.085835904 0.0064650318 0.11373507 0.08436966 0.030828802 -0.14741595 0.16671893
0.008760279 -0.12754089 0.086411074 -0.08814993 -0.10108767 -0.11167772 -0.090700924 -0.0695112
-0.12216186 0.02441258 -0.07595792 0.1029546 0.105872676 0.04385692 -0.07855466 -0.103136964
0.09789851 -0.039351176 0.052967314 -0.15646508 -0.08094451 -0.015479558 0.043306995 -0.13917696

res1.fc1.weight f4 [128, 128]
00000000: 4e05 88bc 301f ac3d 73ec 6fbd 1ef4 213d
00000010: b070 473c 760e 84bc edd5 3abd 0087 b2bd
00000020: 89ab 713d 08b3 c93c 2b4f 18bd 31ab 06bd
00000030: cfc6 753c a086 0f3d 028f 7e3d 37d7 8c3d
00000040: 1062 89bd 4368 f03c d416 b03d b999 84bd
00000050: d108 b03d 3c8a 9139 74fd c6bd 46e2 cb3d
00000060: 974d e93c 9e68 a23a 17ea 533d 8f54 153d
00000070: b24e 0ebd 75de f7bc a55e 9d3d b4e9 e7bd
00000080: 38a3 aa3d 076b ccbc 6086 6f3c 1014 00bb
00000090: 950b 6c3d 61f3 43bd bc1f 2bbc bf8f dcbd
000000a0: 5688 4fbd cdd0 06bc 30c1 5f3d dbd4 b7bc
000000b0: b005 873c c6c2 8b3d 19a1 233b 4758 31bd
000000c0: 2ed5 71bc ed52 813c 263b b2bc 3a86 a6bd
000000d0: 2025 f03c a318 49bc 87d5 b53c 866e 00bd
000000e0: b481 6cbd 1f9f ac3d a26f 00bd 903c 5abd
000000f0: 5af9 313d c0d1 473d 966a 58bb b191 853d
00000100: a6d1 a33d d072 283c a0a8 613d bd8f 2c3c
00000110: df00 1f3d 8a30 373d 28b5 23bd feaa ccbc
00000120: 3167 1d3d 479b b6bd f370 0c3d e749 1f3c
00000130: 841f cb3c 2e8e 4f3c 20d8 553c 129e 2dbd
00000140: 34b3 a03b df5c 64bd ec71 01bd 74d9 953d
00000150: ed97 6abb 86a9 3d3d fbd3 c5bd 62a6 21bd
00000160: f9cb 933d 8a3e 38bd 3c5c c7bb b781 1e3c
00000170: b846 9b3d 6f57 6ebd bc80 a7bb 7205 793c
00000180: 7bbd 7abd 5b4b 7dbd 243d 06be 895a 273d
00000190: c6b2 acbd e672 843b a721 0c3c bffe bcbc
000001a0: 2916 893d c2e4 91bc 394d 84bd e783 ab3d
000001b0: bbda fdbc a7a7 813c e21b 93bd 43fb 943d
000001c0: 8fa6 3f3c d6b5 7ebd ff22 8d3d c835 e13d
000001d0: 6510 aebb 3a78 cb3c e3a1 3a3d 3532 5c3d
000001e0: 9c2d 813d e1c0 113d b8cc 043d 7ccd c13c
000001f0: 98ca 5ebd df5f 503d cd9b 2d3d 989a 803d
00000200: e5ae 6abd 555d 9cbd 938e f2b9 0c4a ddbc
00000210: 407a 513d 87d2 333d 5ede 993d fcf5 61bc
00000220: 77f9 ef3c bbb9 6fbd 7991 c3bb 8ce0 9cbd
00000230: 58af 05bc 188b 99bc 4194 f0b8 8731 21bd
00000240: 9e94 453a 9734 353b 18d9 893d 3e68 24bd
00000250: fabc 8fbd 9170 3d3d ef2e 37bc 0da2 92bb
00000260: a99d 933d c1be 9bbc d91a b93c f8da fe3c
00000270: 389b 18bc 6523 4fbc 4d6b a7bd 35e1 69bc
00000280: 1145 64ba 6173 18bd ed79 91bd 821c c0bd
00000290: 742f a2bd 8cd4 6dbd 2c69 343b e2d7 383d
000002a0: 3b83 9c3d 3d41 2f3d 0afd 4dbd e66a 2a3d
000002b0: 4e8f 8ebd 2601 a33d cb85 acbd da80 b2bd
000002c0: 7f50 a93c 9be4 cfbc 70a5 7f3d d4de be3b
000002d0: e61f 8b3d c142 563d f5ef 883c 588b 423b
000002e0: 5cbb ac3d 8212 95bd 1975 16bd 0f21 403d
000002f0: a621 673c 64fa 8f3d aa95 943c 9710 043c
00000300: 0649 573c 118f f1bc 5a2a b4bd 3067 023d
00000310: 08af bf3c f57e b93d 7eba 8b3d e8e1 86bc
00000320: 7234 a93d 5aa0 b0bd 9277 aa3d 1ead c63c
00000330: 29c0 a03a 22fb 63bd 6988 06bb adc8 783d
00000340: 3f7e 8b3d de37 7e3d aaa0 c3bd 9b9c b3bd
00000350: faf1 2a3d f5d3 3b3c 1737 93bd 65fc 4b3d
00000360: 640c 87bd 5410 c33c a7b6 a53d 5736 91bd
00000370: ffdd 5ebd 4f83 6bbb 0ebe 943d f234 663b
00000380: 0f6a 4e3b ac96 0abd 54ea 83bd 305c 753c
00000390: d507 81bd 57f6 bd3b 2923 80bd 3ee4 993d
000003a0: 6c99 52bd 33bc 053d 86b0 a5bd c747 97bd
000003b0: 0cf3 e3bc f631 96bd ce94 a33c 7e0a 66bd
000003c0: d7b5 6c3d a549 1b3d 8450 40bd 2ddf edbc
000003d0: dd2d babc a70d e8bc 25b0 89bd 6617 10bd
000003e0: 8bd0 8ebd 6fa4 8a3d 9eb4 c93c 94a9 333d
000003f0: 49a4 81bc d4ad 933d 0a4e 183d b1af 69bc
-0.016604092 0.08404386 -0.058575105 0.03953945 0.012172863 -0.016120177 -0.04561417 -0.087171555
0.05900148 0.024621502 -0.037184875 -0.032878105 0.015001013 0.035040498 0.0621481 0.068769865
-0.06708157 0.02934659 0.08598104 -0.06474633 0.085954316 0.00027759548 -0.09716311 0.099552676
0.02847938 0.0012390797 0.051736917 0.036457594 -0.03474302 -0.030257443 0.07684068 -0.11323872
0.08331913 -0.024953378 0.01461944 -0.0019543208 0.057628233 -0.047839526 -0.010444578 -0.10769605
-0.05066713 -0.008228493 0.054627597 -0.022440365 0.016482204 0.068242595 0.0024967848 -0.04329708
-0.014760299 0.015786612 -0.02175672 -0.081310704 0.029314578 -0.01227394 0.022196544 -0.031355403
-0.057740882 0.084287874 -0.03135646 -0.053280413 0.04345069 0.048784018 -0.0033022515 0.06521929
0.07998972 0.01028128 0.055092454 0.010532317 0.03881919 0.044724025 -0.039967686 -0.02498388
0.03842849 -0.089163356 0.034287404 0.00972221 0.024795301 0.012668176 0.0130520165 -0.042387076
0.004904175 -0.05575263 -0.031602785 0.073168665 -0.0035796121 0.04630425 -0.09659573 -0.039465316
0.07216639 -0.044981517 -0.0060839932 0.009674481 0.07581848 -0.058188852 -0.005111782 0.015199052
-0.06121586 -0.061839443 -0.13109261 0.040857825 -0.08432536 0.0040420173 0.008552945 -0.023070691
0.0669368 -0.017809276 -0.064600416 0.08374768 -0.030988088 0.015827013 -0.071830526 0.07274487
0.0116974255 -0.06218513 0.068914406 0.10996586 -0.005312013 0.024837602 0.045564543 0.05375882
0.063075274 0.035584334 0.032421798 0.023657553 -0.054392427 0.05087268 0.04238491 0.062794864
-0.0572957 -0.07634989 -0.00046264063 -0.027012847 0.051141977 0.043901946 0.07513116 -0.013791557
0.029293759 -0.058526736 -0.0059682694 -0.076600164 -0.008159481 -0.018743083 -0.00011471706 -0.039353874
0.00075370993 0.0027649754 0.067308605 -0.040138476 -0.07018466 0.04624993 -0.011180623 -0.0044748844
0.07207806 -0.019011857 0.02259581 0.031110272 -0.009314351 -0.012642716 -0.08174763 -0.014274885
-0.00087078015 -0.03721941 -0.071033336 -0.093804374 -0.07919207 -0.05806403 0.0027528508 0.045127757
0.07642218 0.042786825 -0.050290145 0.041605853 -0.06960927 0.079592034 -0.084239565 -0.08715983
0.020668266 -0.025377562 0.062413633 0.005824903 0.067931935 0.052309755 0.016715983 0.0029685106
0.084341735 -0.07278921 -0.036732767 0.046906527 0.0141071435 0.0703018 0.018137772 0.008060596
0.013139969 -0.029487165 -0.087971404 0.03183669 0.023398891 0.09057418 0.0682268 -0.016465142
0.08261956 -0.08624335 0.083235875 0.02425247 0.00122643 -0.05565942 -0.0020528084 0.060738254
0.06811189 0.062064998 -0.095521286 -0.087701045 0.041734673 0.011464109 -0.07188242 0.04980125
-0.0659416 0.023811497 0.08091479 -0.07090443 -0.05441093 -0.003593642 0.072628126 0.0035126773
0.0031496321 -0.0338351 -0.06441179 0.0149755925 -0.06300322 0.0057971883 -0.06256706 0.07514237
-0.051415846 0.032650184 -0.0809031 -0.07386737 -0.027825855 -0.07333748 0.019968417 -0.05616235
0.057790603 0.03791203 -0.046951786 -0.029037083 -0.022726947 -0.028326822 -0.0672305 -0.035178564
-0.0697337 0.067696445 0.024622258 0.043862894 -0.015825408 0.072108895 0.0371838 -0.0142630795

res1.fc1.bias f4 [128]
00000000: 0b60 1cbd 4657 ecba 4c7b 39bd 1b8e 9aba
00000010: 9de0 533d 8317 e1bd 4894 183c 20e1 e9bc
00000020: a235 73bd 6bf8 813d 2a95 f9bc d0cc 13be
00000030: fd0e bd3d ef20 2e3d 5ef7 08bd dcb6 0a3e
00000040: c847 96bc 27e9 603d 4ef0 093e b859 27bd
00000050: 7eab b7bd 7df0 f73b ed8e 6a3d cd40 273e
00000060: 4c81 113e d065 ec3d 4393 283d 7d43 0abd
00000070: c972 863c 483f f2bd 27b7 91bd e067 0abd
00000080: 714e f93d 0c54 143e dc1f d9bd bd69 19be
00000090: ae8c c1bd 6d5a 2d3c 2dbc c2bb 4a3a 58bd
000000a0: f72c 053e e94c e1bc bd7e 65bc 2c9e c83d
000000b0: 29b9 753d 2ab7 aebd 2db6 5b3c a236 ccbc
000000c0: 8c98 663c d2fd b8bb 1955 acbc 3a98 193d
000000d0: dd62 92bd cc18 97bd e340 62bd 321a ca3d
000000e0: 34b6 b23c 1501 0abe 84c8 33be 2f8e 2a3e
000000f0: 0389 41bd 5938 c63c 76c9 263d 40eb b63d
00000100: dccd fd3c 2ac0 74bc 7d12 b73d 8793 31bd
00000110: 8a00 91bd 2a86 d43d 3063 bcbd a19b 80bd
00000120: 5354 b33c e053 f8bd 3533 83bd 900f 193e
00000130: 0517 c3bd 8f6b d63d 38ab 333d b551 2bbd
00000140: 7454 303d 8eae 083e cdc7 c43d 8554 20bc
00000150: ed78 8ebc 19f8 a6bd 423e cfbd f303 53bd
00000160: a8dd fbbd 4834 d0bd 9992 433d 1bac 10be
00000170: aa5f 663d 0f8b 80bd a753 0cbe 4c18 063e
00000180: 5a09 753b 4bee a13b 7676 5d3d 430b 813d
00000190: 9ca4 b53d ab2e 483c 066f 483c e5a0 8e3d
000001a0: 622b f3ba 9632 633d 3bcb a0bd 0951 773b
000001b0: c479 58bd 19e7 e23d da10 d93c 3a7b bc3d
000001c0: 3b78 03bc e420 9fbd aa3b 4c3d 7a18 8d3d
000001d0: 5dae f53d 4773 053e b7e7 63bc bec3 0ebb
000001e0: 09b7 1fbd 44a1 103d 1c3d c93c e712 a5bc
000001f0: 7b3a c33d 39b0 193e da64 0a3b 9a6e 7f3d
-0.03817753 -0.0018031381 -0.0452836 -0.0011791618 0.05172788 -0.10990813 0.009312697 -0.02854973
-0.05937732 0.0634621 -0.030466635 -0.14433599 0.092313744 0.042511877 -0.033439033 0.13546318
-0.018344775 0.05490985 0.13470575 -0.040857047 -0.089682564 0.0075665102 0.05726521 0.16333313
0.14209479 0.11542857 0.041156065 -0.033755768 0.016412156 -0.11828476 -0.07115012 -0.03379047
0.12173165 0.14485186 -0.1060178 -0.14981742 -0.09450661 0.010580641 -0.0059428425 -0.052789964
0.13005434 -0.027502494 -0.014007268 0.09795794 0.059991036 -0.085310295 0.013410133 -0.024928395
0.014074456 -0.005645492 -0.021036671 0.03749869 -0.07147763 -0.073777765 -0.055237662 0.098682776
0.021815397 -0.13476975 -0.1755696 0.16655801 -0.047249805 0.02419679 0.040719472 0.08931589
0.03098195 -0.014938394 0.08939073 -0.043353584 -0.07080181 0.10377152 -0.09198606 -0.06279684
0.021890795 -0.12125373 -0.06406251 0.14947343 -0.09525875 0.10469734 0.04386446 -0.04182597
0.04304929 0.13347837 0.096084215 -0.009785776 -0.017391646 -0.081527896 -0.101192966 -0.05151744
-0.12298137 -0.10166222 0.04774723 -0.14128153 0.056243576 -0.06276523 -0.13703786 0.13095206
0.0037389607 0.004941737 0.05406805 0.06300976 0.08869287 0.012218158 0.012233501 0.06964282
-0.0018552358 0.055468164 -0.07851263 0.003773751 -0.0528505 0.11079235 0.026497293 0.09203191
-0.008024271 -0.07769945 0.049861588 0.06889434 0.11996148 0.13032256 -0.013910226 -0.0021784152
-0.038992915 0.035310045 0.024565272 -0.020150615 0.09532639 0.1500863 0.002111724 0.062361337

res1.fc2.weight f4 [128, 128]
00000000: 6648 303d d461 823d ea16 633d 8f60 75bc
00000010: 38b0 74bd 2793 9fbd 9ce4 7d3d 28d4 88bd
00000020: f314 263d fe24 103d 5e5d e9bc fb5e 7c3d
00000030: c103 873c bf08 67bd a7ba cf3c fa77 923b
00000040: 4678 643b 63eb a93d 54de 68bd ec0c 363d
00000050: f481 e0bc 8965 ed3c e6ef 1a3d 2c24 97bd
00000060: 43bb b5bb 0519 c5bd cbcd 95bd bb57 8f3d
00000070: 4d96 9cbd 4bf9 66bd c98b 53bd be2e 0cbc
00000080: 52b0 34bd 696c c6bd 464a 883c e90a f9bc
00000090: bd22 373c ec38 1ebd 3494 543d 0870 553d
000000a0: 4379 813d e3ee d8bc f124 88bd 09b0 833c
000000b0: 87af 95bd 5789 95bd 6f47 aa3d a36a 4f3d
000000c0: a17f 9c3d 24c3 a1bc 119c f5bb 29ac b0bc
000000d0: 3741 a63a 4175 933d e4ca 4fbd ed8c e4ba
000000e0: 6f3e 14bd 2f77 913d 053b b5bc 99e4 02bc
000000f0: 6dc7 36bd 152d 37bd e0e7 5b3d ac7f 14bd
00000100: d37e c13d eef9 4b3c d050 c93c 22b7 bfbc
00000110: d86b b23d 0b67 9bbd c4a3 1c3d ddeb b0bc
00000120: a923 dc3a 79d9 3d3c 9cde 3abd 8000 b7bd
00000130: 22f4 783d 786a c9bc bbd5 64bd dfb3 b9bd
00000140: f48f 83bb 7cbd 6d3a 4f96 8d3c bf12 873d
00000150: 6f72 81bd d390 5abd 2d0a 463d 8aa7 bebb
00000160: 17b3 1c3d 5de8 5cbd 3fbf d93c 9fd1 063e
00000170: 76e2 7f3d 763a 73bd ab5e e23b 9e2e 98bd
00000180: 3201 103d 6c05 4a3c f8e3 a9bd f789 ab3d
00000190: 970a 38bc b3a0 86bc 74ee 873c 283b 833d
000001a0: 5adc 98bd cd14 88bc cf6a 9fbc f6c3 4dbd
000001b0: 7c65 823d c581 2d3d ce5f 99bd 0b25 723d
000001c0: 5af6 cb3a 1c17 463d 268a 5d3c 5668 453b
000001d0: ee96 a5ba a999 0bbe 8f4c 243d 4fae 283d
000001e0: f7c9 58bd 7f6b b7bd 3602 b2bd ec50 4ebd
000001f0: 3c5c bf3b d3d5 513d dd12 1dbd 8124 f33c
00000200: d75a afbd 5c12 b3bc a855 fbbc e6e9 413d
00000210: 77f3 f83c fa15 84bc cecc 493d 5640 26bb
00000220: 3b71 6a3d 5e44 6c3d b43d 4b3d ee71 fd3c
00000230: 0a26 f0ba 320b 903d 7677 b23c 5cdf e9bd
00000240: 8f38 10bd c80e 843d e273 ecbd 7005 d23d
00000250: 4544 c43d 2939 653d c1ae 63bd ce76 f3bc
00000260: ae27 d33b f16e a3bc 0b11 9bbd 6249 be3a
00000270: 43ae 8ebd 6715 41bd cac0 c2bb 052d 2ebd
00000280: 9e03 b2bd 354e eebc da78 41bd b752 b9bd
00000290: f9ff 0bbc 56b9 ba3b 4ee9 a93d 0b5b 4f3b
000002a0: c21d cdbd 54d3 46bd 5c16 f2bb b3a7 a5ba
000002b0: f0b3 83bd 9abd d1bc 244a cabd b55f 353d
000002c0: ec45 38ba 41be e5bc 11bd 86bd 2a00 503d
000002d0: fa82 8cbd 5744 173d 76f3 71bc e583 c33c
000002e0: 2889 3b3d 3741 babb bf95 58bc 0593 e6bd
000002f0: ef69 cf3c cf24 703d 1207 0f3d df28 24bd
00000300: 2652 683d f992 503d 868e b3bd 0d8d 323c
00000310: e3e8 2d3c 2249 42bc 870c 5ebd 6571 923d
00000320: c77b 333d cf71 83bd f628 87bc c68d 6cbd
00000330: 4dbb a3bd 9355 eebc 7a45 2ebd ba67 8ebc
00000340: 4722 55bd 425e e8bc b39f a93d 3f57 91bd
00000350: 7d5d 813d 8066 a3bd f44c 203d 0592 96bd
00000360: 8ba7 d13d c64e 99bd 44c5 113c b40e 873c
00000370: f396 183b 2075 033d 994d 423d e033 813d
00000380: 1b30 ae3d 3a71 77bd f60f d33c 7805 a1bd
00000390: 7876 ccbc 7c4d 2bbd 8187 26bd f874 39bd
000003a0: 4b47 bd3c b8fd 383d 028f 533d 6128 5dbd
000003b0: 5633 a4bd 585b a1bd 5ba0 01bd eac4 873d
000003c0: f84e 92bd 5825 ae3d 052f 4dbd e7d2 113d
000003d0: 396a dfbd 58e0 493a a547 7dbd 71b5 a8bc
000003e0: 316e 823d b754 8bbc ae3b 663d 79f3 37bd
000003f0: 958a 0fbe c5e8 fcbc bbbf b33c 8c4f 363d
0.043037795 0.063663155 0.055441774 -0.014976635 -0.059738368 -0.07791739 0.061985597 -0.066810906
0.040547322 0.03519153 -0.028486904 0.061614018 0.016481282 -0.056404825 0.025357557 0.0044698687
0.0034861728 0.082968496 -0.056852654 0.044445917 -0.027405716 0.02897908 0.03782644 -0.07379946
-0.005546005 -0.09623913 -0.073146425 0.06999155 -0.07645855 -0.056390088 -0.05164698 -0.008556066
-0.044113465 -0.09688646 0.016636979 -0.03040071 0.011177716 -0.038628504 0.05189915 0.052108794
0.06321957 -0.026481098 -0.06647671 0.016075151 -0.0730887 -0.07301586 0.08314406 0.050638806
0.07641531 -0.01974637 -0.007495411 -0.021566467 0.001268423 0.07200099 -0.0507306 -0.0017437019
-0.036192354 0.071028106 -0.02212287 -0.007989072 -0.04462378 -0.044720728 0.05368793 -0.03625457
0.09448018 0.012449725 0.024574667 -0.023402754 0.08711976 -0.07588013 0.038242117 -0.021596843
0.0016795296 0.011587494 -0.045622453 -0.08935642 0.0607797 -0.024586901 -0.05586789 -0.09067511
-0.0040149633 0.0009069068 0.017283587 0.065953724 -0.063206546 -0.05336077 0.048349548 -0.005818312
0.03825673 -0.053932536 0.026580451 0.13165902 0.06247183 -0.059381925 0.006908258 -0.074307665
0.03515739 0.012330394 -0.08295435 0.08375924 -0.011232994 -0.01643405 0.016593195 0.064077675
-0.07463904 -0.016611481 -0.01946011 -0.05023571 0.06367013 0.042360086 -0.074889764 0.05911736
0.0015561089 0.048361883 0.013521707 0.0030122004 -0.0012633482 -0.13632835 0.040112074 0.04118186
-0.052926984 -0.0895605 -0.08691828 -0.050370142 0.0058398526 0.05122931 -0.038348068 0.029680492
-0.08562248 -0.02185934 -0.030680493 0.047342204 0.03038953 -0.01612376 0.049267583 -0.0025367937
0.05723689 0.057682388 0.04961939 0.030938115 -0.0018321883 0.07033385 0.021785479 -0.114195555
-0.03521019 0.06448132 -0.115455404 0.10254943 0.09583334 0.055962715 -0.05558658 -0.029719736
0.006443939 -0.019950362 -0.0757161 0.0014517719 -0.069668315 -0.04713955 -0.0059433924 -0.042523403
-0.08692096 -0.029090026 -0.047234394 -0.0904898 -0.008544915 0.0056983633 0.082964525 0.003163996
-0.100154415 -0.048541382 -0.0073879194 -0.0012638479 -0.06430805 -0.025603104 -0.098774225 0.044280726
-0.0007029462 -0.028044822 -0.0657903 0.050781406 -0.06860919 0.03693041 -0.014767518 0.023866603
0.0457851 -0.0056840437 -0.013219296 -0.112585105 0.025319068 0.058628853 0.034918852 -0.04007804
0.056718968 0.050921414 -0.087674186 0.010897887 0.010614607 -0.0118582565 -0.054211166 0.071505345
0.043819215 -0.06418192 -0.016499024 -0.057752393 -0.07994709 -0.02909354 -0.042546727 -0.017383445
-0.052034643 -0.028365258 0.08282413 -0.07096719 0.063166596 -0.07978535 0.03913589 -0.0735207
0.102370344 -0.07485728 0.008897129 0.016486503 0.0023283332 0.03209412 0.047437284 0.063087225
0.08505269 -0.060410716 0.025764447 -0.07862371 -0.024958834 -0.04182194 -0.04065657 -0.045277566
0.023105284 0.04516384 0.051650055 -0.053993586 -0.08017604 -0.078787506 -0.031647068 0.06629355
-0.07143968 0.085032165 -0.05009367 0.035601523 -0.10908932 0.00077009713 -0.061835904 -0.02059433
0.063686736 -0.017008169 0.05620926 -0.044909928 -0.14017709 -0.030872712 0.02194201 0.044509456

res1.fc2.bias f4 [128]
00000000: d7cf f9bd 2ad1 f1bc 9fee babd d0c1 863d
00000010: 24a0 66bd 6d08 2ebd de08 df3d 4726 c5bd
00000020: 7952 96bd 35a6 a8bd 048c 3bbd 90b1 cbbd
00000030: 5133 bb3d 2175 19be 1c07 8abd 9569 e7bd
00000040: f7d5 e5bd 8c52 11bd 7bfb e73c 01a4 0b3d
00000050: b159 d73d cf61 bbbd aace 88bd bfbe 1bbe
00000060: ad59 9c3c b990 eebc 4d2f 11be 5105 54bc
00000070: 73ae a6bd d3f1 8ebc dd09 85bc 54b2 99bd
00000080: 1999 4ebd a4fe cdbd 391e 0cbd dec4 0dbe
00000090: e7fa fabc 66b7 033e e695 55bd d2f8 0ebd
000000a0: 6326 103e c59a 0bbe 5c26 97bd 39bc a63c
000000b0: 61bd fcbd b953 1b3e 4b03 a6bd 3b20 2ebd
000000c0: 3739 c53c 57cd 9fbd 6163 c63d 5a13 863d
000000d0: 84b9 c8bd 1b0b 04be 9ab9 6f3d 8b37 843d
000000e0: c6b0 883d 90a1 113d 06c6 bcbd 5d6d 673c
000000f0: 6d2d 823b 32e6 cd3d cdf9 67bc 3fab 24be
00000100: fcd3 9c3d 5423 8f3d 002f 8c3d c8b4 d9bd
00000110: b088 463d 8502 09be 42ce b8bd e15c 9e3c
00000120: 48d9 05be 41e1 203d 9e8c d43d 0db7 7a3d
00000130: ebf1 a5bd 5231 76bd 3541 5ebd f8ab e23d
00000140: eb95 813d f823 e53d 081c eb3d 7c7a 873d
00000150: 5a8e 023a 8f88 02bd 7b75 1f3d 8838 ea3d
00000160: 55b0 14be a747 833d ed5b 00be 7e47 f8bc
00000170: 4891 12bc 97c2 e33d f440 86bd f5eb c6bd
00000180: d63b ad3d 0b6a 04be 2f46 b1bc b33b 19bd
00000190: d5a7 093e 603d f23d 633d 793d 6df2 66bc
000001a0: ce56 9b3d 5e8e c13d 40d6 623d aba5 b43c
000001b0: cbd7 68bd 0250 01be 64a7 033d 8866 e7bd
000001c0: ab02 943d 36aa aabd 5ddc c8bd 1494 9a3d
000001d0: e626 5c3d 5f1f ddbd 083a f5bd a281 ce3d
000001e0: d0e0 913d c9ff f73d 9c5c 083d 2e18 c5bd
000001f0: b6d5 6dbd f1f9 d4bd 9c9f 24bd e231 19bd
-0.121978454 -0.029518683 -0.091275446 0.065799356 -0.056305066 -0.042488504 0.10890363 -0.096264414
-0.07339949 -0.082348265 -0.045787826 -0.09945977 0.09140647 -0.14986087 -0.06739637 -0.11299435
-0.11222451 -0.035479113 0.028318157 0.034091953 0.10515154 -0.09149515 -0.06680043 -0.15209483
0.01908573 -0.029121744 -0.141782 -0.012940721 -0.08138742 -0.017449295 -0.016240055 -0.075047165
-0.050438974 -0.100583345 -0.03420851 -0.1384463 -0.030637218 0.1286293 -0.052144907 -0.034905262
0.14077143 -0.13633259 -0.07380363 0.020353423 -0.12340809 0.15168656 -0.08106097 -0.042511206
0.024075134 -0.07802837 0.09686924 0.0654666 -0.09801009 -0.12894861 0.058526613 0.064559065
0.06674342 0.03555447 -0.092174575 0.014125195 0.0039727003 0.10053672 -0.014158678 -0.1608095
0.0765762 0.0698916 0.06844902 -0.106301844 0.0484702 -0.13379867 -0.090237156 0.019331397
-0.13071167 0.03927732 0.10378383 0.061209727 -0.08102783 -0.06010563 -0.054261405 0.11067957
0.06327423 0.11188501 0.11479956 0.06615159 0.00049803185 -0.031868514 0.038930397 0.11436564
-0.1452039 0.06410151 -0.12535067 -0.030307528 -0.008945771 0.111210994 -0.065553576 -0.09712974
0.084586784 -0.12931077 -0.021639911 -0.03741045 0.13442929 0.118281126 0.06084956 -0.014095885
0.07584916 0.094509825 0.055380106 0.022051653 -0.05684642 -0.12628177 0.032142058 -0.11298853
0.072270714 -0.083332464 -0.09807656 0.07547775 0.053748034 -0.10796999 -0.11973959 0.10083319
0.07122958 0.12109334 0.033291444 -0.096237525 -0.05806514 -0.10399235 -0.040191278 -0.037401088

res2.fc1.weight f4 [128, 128]
00000000: e710 90bb 8b6f 74bd 36d7 473c 184d 6abd
00000010: 1d42 263c 5883 f23d b317 e23c fffa 463c
00000020: 1221 66bd a59a 05bd c0dd 093d a381 373d
00000030: 0dab dbbc 9c64 9abc 3c40 8fbd 81c8 b2bc
00000040: cee5 143c 7bf5 8d3d f287 fe3b f744 d6bd
00000050: 59ed 93bd bd7d 93bc 564d 93bd f9a3 76bd
00000060: 459b 60bd b4da 2d3d 8fa8 cd3d 9dd0 91bd
00000070: c2e9 d43c 75cb 893d b540 0ebd 2038 6a3d
00000080: 8ec4 803d 9a84 c03d c1e5 7c3d 01ef 6cbc
00000090: ae46 773d c4c7 a5bc 4050 96bd 5be9 af3d
000000a0: 806c 793d 54ca 6d3d c44f 5fbd 6876 1bbd
000000b0: a242 d13c 0447 a0bc 3f92 16bd aaf8 1f3c
000000c0: b330 873d ec42 94bd 689a d0bc 354f 713d
000000d0: abaa 613d 9ea2 03be c12f 803c d090 01bd
000000e0: b923 f7bc cd21 87bb b728 a13d 3715 bfbc
000000f0: 5ec9 bd3b 9f61 ad3c 017c 25bd d01a 3bbd
00000100: cb2f 7d3d 37d4 a73d 7352 7a3c 2f14 083d
00000110: 95b6 74bc 09be 993d afc1 dc3d f59e 1fbd
00000120: 69d4 6fbd f374 a03d 772b cd3c a12d 3ebd
00000130: d579 c73d 521d b53d 7dec 0f3d 8adf bfbd
00000140: 9232 a9bd d6b2 6bbd 0df6 813d bd8d b4bd
00000150: 020b 1fbd 030b 80bd f73a a53d 1557 41bd
00000160: 2067 a03d 55d6 973d b04e da3b 4e5a 89bc
00000170: ec80 50bc dfc0 723b 88f2 5ebd 316e b4bc
00000180: 3322 8e3d a616 21bd f379 32bb 68a7 7ebc
00000190: 8954 68bd 6c49 af3c bc42 fb3c 62ed b7bc
000001a0: 85a9 9ebc 8033 7cbd 8df8 2c3d 5b6f 993d
000001b0: d99c 2d3d ea2c 99bb 7111 13bb 86f7 a83d
000001c0: ba6b 673d b00c aebc 2fa5 9e3c fafc 233d
000001d0: a9ae a0bd b79d 93bd 37f6 37bd c055 a3bd
000001e0: 194a 8b3d 5048 de3b 8fd7 bbbd 70d7 873d
000001f0: cdcf 8dbd 580b 9abd 0c17 81bc d5ab 663d
00000200: ce5c d23c 0432 943d 0f65 dabd fb89 3ebd
00000210: ecca e93c dfa9 7c3d 1831 c6bd 3bdd d13c
00000220: e3bf 42bc 71a4 c0bd bd11 cd3c 5e36 f83c
00000230: f38a d1bc 746f e43c e28c 84bd de3b e43c
00000240: 154a 763d cda2 70bd c0a4 05bd 21fb 8cbb
00000250: 3b78 973d a275 4dbd 5a77 0a3b b136 163c
00000260: 666c b9bd 218c 613d b867 b73d ec8d 643d
00000270: 3041 c7bd e6cc 25bd dd48 7ebd aa2c 713d
00000280: 4097 6abd c186 633c a5f6 a03d 32a7 adbd
00000290: 5c92 d0bd 5628 b5bd 639f de3c 6096 3ebd
000002a0: 9ac3 b33c 50ed c33c 0097 793d 5df5 113d
000002b0: 36ba cf3c 2ab3 83bd 8978 eebc af78 553d
000002c0: d3f4 bfbd 2f2f e0bc d8e4 89bc 84d8 7e3d
000002d0: 8b53 92bc 121d 8f3c 7657 85bd edd0 fe3c
000002e0: 0d9e 34bd 635b 3ebc 2694 d2bc d1d0 a9bc
000002f0: abf7 89bd 9f6e 6abd 0177 373d 676c 9ebc
00000300: e408 b73c aef5 893d c28d c6bc 85a5 953c
00000310: 5899 59bd 627e 763d 0ead e43c 459d 413d
00000320: a389 a7bd b030 293d e310 773c 212e 323d
00000330: 1ddc 993d dfb7 a73d 84cf 74bc 702a a03d
00000340: 7dad c3b9 0f49 443d 5a00 16bd dc9b 18bc
00000350: 176e 2c3d 259c a63c f581 febc 870b 9a3d
00000360: 65fe 483d 856a 57bc ecaa 0abc 2229 a9bc
00000370: 9f24 95bd 0f27 7c3d 4860 57bd 55e4 2c3d
00000380: 160d 983d e629 1b3d 7c0c 353c f9bb 2ebd
00000390: 28fd 103d 2648 a53d 47a3 9bbd 38d5 b63d
000003a0: e53a 153c 4807 5abd f600 b23d ff80 173d
000003b0: ef67 1e3a 7506 a73c f896 923d d0e9 0bbd
000003c0: 9244 91bb a0a6 123d d3c2 0ebd ff0b b739
000003d0: 1972 503d adc8 9cbd 4981 fcba 6bc9 02bd
000003e0: 24e9 bb3b 3bb0 99bb c737 8abd a2bf 5dbc
000003f0: a3bc 93bd 82b2 b2bd d83a ac3c 3649 a3bd
-0.004396546 -0.05967669 0.012197306 -0.05720243 0.010147599 0.11841458 0.027599191 0.012144803
-0.056183882 -0.032618184 0.033658743 0.044801366 -0.026814962 -0.018846802 -0.069946736 -0.021824123
0.009087993 0.06931587 0.007767671 -0.10462373 -0.07223005 -0.018004293 -0.07192485 -0.06021497
-0.054835577 0.0424449 0.100419156 -0.07119868 0.02599037 0.067282595 -0.03472968 0.05718243
0.0628749 0.09400292 0.061742548 -0.01446128 0.06037014 -0.020236857 -0.07339525 0.08589431
0.06089449 0.058054283 -0.05451943 -0.037954718 0.025544468 -0.019565113 -0.036760565 0.009763876
0.066010855 -0.07239327 -0.025464252 0.05891343 0.055094402 -0.12855002 0.01564777 -0.031632245
-0.030168401 -0.0041239024 0.07869094 -0.023325546 0.005791827 0.021164713 -0.040401462 -0.045679867
0.061813157 0.08194774 0.0152784465 0.033222374 -0.014936109 0.075069495 0.1077913 -0.038969953
-0.05855218 0.07834806 0.02504514 -0.046430234 0.097400345 0.08843483 0.035137642 -0.093688086
-0.08261599 -0.057543598 0.063457586 -0.08816097 -0.038828857 -0.062521 0.08067887 -0.04720219
0.078321695 0.074139275 0.0066622123 -0.016766693 -0.01272605 0.003704123 -0.054430515 -0.0220252
0.06940117 -0.03932824 -0.0027233332 -0.015542842 -0.056721244 0.021397315 0.03067147 -0.02245206
-0.019367943 -0.06157255 0.042229224 0.074919425 0.04238591 -0.0046745436 -0.0022440816 0.08250336
0.05649922 -0.021246284 0.019365875 0.04003618 -0.07845814 -0.07207816 -0.044912543 -0.0797534
0.068012424 0.0067835227 -0.09171974 0.06632888 -0.069244005 -0.07521695 -0.01575806 0.056316216
0.025679018 0.07236102 -0.10663807 -0.046518307 0.028539144 0.06168544 -0.09677333 0.025618186
-0.01188657 -0.09406365 0.025032872 0.030299362 -0.025578951 0.027885176 -0.06472184 0.027860578
0.060129244 -0.05874901 -0.03262782 -0.004302398 0.07395979 -0.05016101 0.0021128268 0.009168313
-0.090538785 0.055065278 0.0895533 0.05579941 -0.097292304 -0.04047861 -0.062081207 0.058880486
-0.05727315 0.013887108 0.07859544 -0.084791556 -0.10184166 -0.08845584 0.02717561 -0.046530128
0.021943856 0.02391687 0.06093502 0.035634387 0.025357347 -0.06430657 -0.02911021 0.052117046
-0.093728684 -0.027366249 -0.016832754 0.062218204 -0.017862102 0.017469916 -0.065108225 0.031105483
-0.04409604 -0.011618468 -0.025705408 -0.020729454 -0.06736692 -0.057234403 0.044791225 -0.0193388
0.022343107 0.06736313 -0.024237517 0.018267402 -0.053124756 0.06017912 0.02791455 0.047269125
-0.08180549 0.041306198 0.01507971 0.043501023 0.075126864 0.081893675 -0.014942054 0.07820594
-0.00037322557 0.047921237 -0.03662143 -0.0093145035 0.042097177 0.020338127 -0.031067828 0.0752173
0.049070735 -0.013147955 -0.0084636025 -0.020649496 -0.072823755 0.061560687 -0.052582055 0.042209942
0.07424371 0.037881754 0.01105034 -0.042659733 0.03539768 0.08070402 -0.07599502 0.08927387
0.00910828 -0.0532296 0.086915895 0.036988255 0.0006042709 0.020388821 0.07157701 -0.034158528
-0.004433223 0.035803437 -0.034853768 0.00034913418 0.050890062 -0.07655463 -0.0019264604 -0.03193037
0.0057345796 -0.0046901978 -0.0674892 -0.013534458 -0.07213714 -0.08725454 0.021024153 -0.07972948

res2.fc1.bias f4 [128]
00000000: 5a17 1a3d 0cca c63c 426c 77bd 1589 edbd
00000010: 7a48 8e3c 07e0 b1bd eaa2 a9bd 5a0f 89bd
00000020: 749a 1b3c ae7b 0f3c a400 b73b 7bed 79bd
00000030: cade b9bd 14e9 42bd 7688 d23d d281 e9bc
00000040: e999 3fbd 1a06 aabd f6bc 9f3c ee99 eb3b
00000050: 8e05 013e 9a81 70bd 7f5b 6b3a edc8 91bd
00000060: 41a2 123e 9330 6abd 8da2 143e 10ad 913d
00000070: a69b bdbc 9951 29bd 4a24 57bd 93bd f43c
00000080: c4d9 5cbd b035 763c f603 8dbd 9305 13bd
00000090: c4ad 873d df54 593c 37c3 33bd 58f8 673d
000000a0: e6b9 683d 744b 5d3d b36f 61bc 7cbd 963c
000000b0: 08ca b0bd 23e1 c23d 5abc 85bc 41eb 09be
000000c0: 790f b13c 622a 913d 0b8a 623d 52d0 85bd
000000d0: f390 143e 826c 80bd 4145 813d bc50 6ebd
000000e0: a50f e9bd 3918 9c3d 0baf 33bd 42a7 36bc
000000f0: 7999 8dbd c403 e83c d7bf 20bd dfce 50bd
00000100: 9f69 a8bd 342f fe3d c313 e33d 34e3 6bbd
00000110: d858 a3bc ca8c c23b 3cff 8cbd 3d96 433d
00000120: 490d 5bbd bbc5 ea3d 865f 99bd 8132 c93c
00000130: 6af4 8b3d ce90 c9bb 068d c23c 756a b2bd
00000140: d3d9 14bd a420 e9bc 131f 883d e58e a2bd
00000150: 7e6a 673d a78d 553d 354e 30be 7e27 1fbd
00000160: 64fd 12bb dc7d f03d a495 c6bd ddde 03bd
00000170: 8f84 933d 7858 533d 3868 a83c 8286 92bd
00000180: a6e4 dfbc 7b7b acbd 2895 053e b1bc ff3d
00000190: ac66 a73d a78f c6bd b8e9 973d ef24 633d
000001a0: 5f4c be3d 29d0 cfbd 247b 003e ae58 da3d
000001b0: 4741 893d 3788 863d 6425 a93d 6230 183d
000001c0: 5df4 85bd e39d dabc 2875 b839 8b41 1dbd
000001d0: 919c 033c 54a8 18bc d59e b03d e28d ad3d
000001e0: f85f 19bc 079c a43c ed4c 4a3d a861 763d
000001f0: dbdc 673c 815c 0dbe aae2 763d b3ad 08bd
0.037619926 0.024266265 -0.060405977 -0.11598412 0.017368544 -0.08685308 -0.082830265 -0.06692381
0.009497274 0.008757515 0.005584793 -0.061017495 -0.09075697 -0.047585562 0.10279934 -0.028504286
-0.04677764 -0.08301945 0.019499283 0.0071899807 0.12599775 -0.058717348 0.00089781726 -0.07118402
0.14319707 -0.05717523 0.14515133 0.07113087 -0.023145508 -0.041337583 -0.052524842 0.029875552
-0.053918615 0.015027449 -0.06885521 -0.035893988 0.0662494 0.013264864 -0.043887343 0.056633323
0.05681791 0.054027036 -0.013759541 0.0184009 -0.086322844 0.09515598 -0.016325165 -0.13468648
0.021613823 0.07088162 0.05530743 -0.065338746 0.14508419 -0.06270696 0.06312037 -0.058182463
-0.11379937 0.076218076 -0.043868106 -0.011148276 -0.06914038 0.028322108 -0.039245453 -0.050978538
-0.082232706 0.12411347 0.110877536 -0.057589725 -0.019939825 0.0059371935 -0.068846196 0.0477507
-0.053479467 0.11463495 -0.07488923 0.024560215 0.06833728 -0.0061512953 0.023748886 -0.08711711
-0.036340546 -0.028457947 0.06646552 -0.07937411 0.056498043 0.052137043 -0.17217334 -0.038856022
-0.0022428865 0.11742756 -0.096965104 -0.03219496 0.07203018 0.051598042 0.020557508 -0.071545616
-0.027330708 -0.084219895 0.1304518 0.12487162 0.0817388 -0.09695368 0.07417625 0.055455144
0.092919104 -0.10147125 0.12546974 0.106614456 0.06701904 0.0656895 0.08259085 0.037155516
-0.06540749 -0.026686614 0.00035182503 -0.038392585 0.008032934 -0.009317476 0.08624045 0.084743276
-0.00936126 0.02009393 0.04938977 0.060151726 0.014151777 -0.13804819 0.060274757 -0.033368777

res2.fc2.weight f4 [128, 128]
00000000: cbb1 8bbd 6794 38bd 2117 583d ab6f 39bc
00000010: 538e 8dbc e9f0 39bd 1585 993d 7c6b 843d
00000020: 5de7 563d 5be0 2abc d512 4b3c 39b6 54bd
00000030: 3fad 443d 0f20 8c3d d03f 7c3c d068 8fbd
00000040: 9890 a9bc ba7d ab3c df14 3f3c 40cf 93bc
00000050: 3f67 fc3c 3d19 9a3c bdfe 1fbd 8b31 ff3b
00000060: f994 283e e142 1d3d 7f2a 56ba 07ab 06bc
00000070: d09a 38bd d24f 9bbd 2513 b73d 7f0b b4bd
00000080: fd48 e23c 633b 88bd 4768 5cbd bc79 b4bd
00000090: 626f f43d 7570 a53d c4c2 62bc 988c 853d
000000a0: f724 4dbd ff77 733d 206f c5bc a371 a33d
000000b0: c34b 1e3c 62e7 5dbd 5e4e 953d b582 1dbd
000000c0: 7e94 8a3a 6018 92bc eee0 7e3a 7220 f63c
000000d0: 8d33 ef3d bd6c d93c d27d 243c 6b78 973d
000000e0: 9f33 7f3c 589f 5cbd 4e7a b23d e3ca 823d
000000f0: 920c ba3b 2006 79bd eca3 473b d398 3d3c
00000100: 26e6 1e3c 8eb6 ec3c 30bd 193d c605 923d
00000110: 7588 ddbd fcdf fcbc 822c 77bd 71ae 22bd
00000120: 20df ee3c 4ab7 7f3d e987 febc b2c9 073d
00000130: e5e1 85bd 05dc 913d 556e 9cbc 4121 f33c
00000140: c7f0 773d 9462 153d 9f7c b13d b5e5 83bc
00000150: ca32 653d c4e0 ff3d e294 393e 5a03 e33b
00000160: 7803 10bc 71a9 223d 9b83 743d 7c4d 933d
00000170: aed2 c8bd bbd5 193d a137 1f3d 125d 523d
00000180: 24d6 053c 327a 373d 1925 c03d add3 ed3c
00000190: 2162 8c3d 61a6 083d dffb 903c dcab 84bc
000001a0: b971 5c3d 865d 123d c03b 073e ac08 2f3d
000001b0: 9039 953c 3bd7 b83c 2858 26bd ff1c c4bc
000001c0: 5d8a 00bd b1f3 a7bc d7a8 c13d 6f16 013d
000001d0: 048d 7b3c 95f9 4a3d 34ea f13d b4d3 6b3d
000001e0: 97d6 12bd 701c 97bd 95a5 e03c f1bd afbd
000001f0: adc9 733d e9e2 b03d 7332 03bd 42ea 7fbd
00000200: 9482 2ebd 8eb1 9d3c 2f82 253b a062 043d
00000210: 43f7 63bd 655b 25bd 27ca 29be ac67 47bd
00000220: 5091 5cbc 54be 8dbc a865 bbbc 19ef 01bd
00000230: 5c8f cc3c 1d30 64bd a8e6 083d bf8e 25bd
00000240: 5b06 8f3d 2eff b73b eec2 8a3d 5357 833d
00000250: 5450 88bd 48b1 953d 94d3 a7bd da6d 80bd
00000260: f340 32be 5041 81bd 41f8 2abd 7c52 aabd
00000270: ab14 a2bd 0f65 d83d 5034 a9bd ab34 f6ba
00000280: e2b4 803d 0a2d 80bc e117 503b 7375 e73d
00000290: 82cb be3c 267b 95bd 37a8 9dbd d4d4 9e3d
000002a0: 5dd7 923d 06e8 733d 9885 a4bd 86a9 8dbd
000002b0: e2a9 31bd d347 48bd 4b5f 23bd d0a0 68bd
000002c0: 5451 b43d ba1d 2abd ef58 db3c 6a5b e8bd
000002d0: 1b05 b1bc a8a7 0bbe 76ad b0bd 6d07 4dbd
000002e0: 07b8 b4bd bcf4 7d3c 6951 fbbc ab03 413d
000002f0: d6fc ce3c a521 363c 6e34 6b3d 5db3 3c3d
00000300: 3a34 72bd 9be1 8ebd 7065 f4bd 6362 4cbd
00000310: 30e6 e83d d69d 943d 0cce 06bd 594b 18bd
00000320: 6c95 cbbd 340a 24bd 48fc 9c3d ff69 66bd
00000330: 642e 8f3d 561d 69bd 4965 debc f312 eabc
00000340: a1a2 023d 1beb ac3d d2f7 003d 35f1 f0bc
00000350: e2f4 ccbd 03f5 62bd 5a91 11be c428 5b3d
00000360: 10e9 74bd bf8d 3ebd 89ab 01be 8a8c 4dbd
00000370: de63 c6bc 8263 debd 72e0 60bc 8a65 3abd
00000380: 40fb 69bd fe96 3d3d 090d 89bc 2c4f 18be
00000390: 70c4 893d 0537 3b3d 02b9 383b 1b52 37bc
000003a0: e408 7cbd 5641 e0bd 4b24 20be b17e f9bd
000003b0: c8c6 8f3d ed75 b5bd 9d64 e3bd 284b 6c3b
000003c0: cf7e 9bbd c477 22bd c7a1 0c3d f159 063b
000003d0: ea27 953c ea68 82bd 1d63 85bd fd77 3b3d
000003e0: 8a73 b03d 79f9 94bd 3058 95bd a81f 2b3d
000003f0: 4f89 a23d ef6e ebbc 0636 e93c 5f5a 7dbd
-0.06821021 -0.045063403 0.052756432 -0.011318128 -0.01727978 -0.045395765 0.074960865 0.064658135
0.05246674 -0.010429467 0.012394627 -0.051931594 0.048016783 0.06842052 0.015396073 -0.07002413
-0.02069883 0.020933975 0.011662691 -0.01804316 0.03081095 0.018810863 -0.039061297 0.0077878884
0.16463079 0.03839386 -0.00081697846 -0.008219487 -0.045069516 -0.07583584 0.089391984 -0.08791255
0.027622694 -0.06651952 -0.053810384 -0.088122815 0.11935307 0.0807809 -0.013840381 0.06520957
-0.05008408 0.05944061 -0.02410084 0.07980659 0.009661618 -0.054175742 0.07290338 -0.03845473
0.0010572819 -0.017833889 0.0009722848 0.030044768 0.116797544 0.026541108 0.0100397635 0.07396015
0.015576272 -0.0538629 0.08714734 0.06386354 0.005677768 -0.060796857 0.0030462695 0.011572081
0.009698426 0.028895643 0.03753394 0.071300074 -0.10817043 -0.030868523 -0.06034518 -0.03971714
0.029159129 0.062430657 -0.031070666 0.033151336 -0.065372266 0.071220435 -0.01909558 0.029678943
0.060532358 0.036470965 0.08666348 -0.016100744 0.05595664 0.124940425 0.181232 0.00692789
-0.0087898895 0.039712373 0.05969582 0.07192513 -0.09805809 0.037557345 0.03887141 0.05135829
0.008168731 0.04479427 0.09382076 0.029031599 0.06854654 0.033361796 0.017698226 -0.01619523
0.053819392 0.035733722 0.13206387 0.04273288 0.018215925 0.022563567 -0.040611416 -0.023939608
-0.031381954 -0.020501943 0.09456032 0.031515535 0.015353445 0.049554426 0.11812249 0.057574943
-0.03584918 -0.07378471 0.027422706 -0.0858115 0.059518505 0.0863703 -0.032030534 -0.062479265
-0.042604998 0.019249704 0.0025254597 0.03232062 -0.05565573 -0.040370364 -0.16581021 -0.048682854
-0.01346238 -0.01730267 -0.022875622 -0.031722162 0.024970703 -0.055709947 0.033423096 -0.040419336
0.06983634 0.0056151366 0.06775461 0.0641314 -0.066559464 0.07309204 -0.08194652 -0.062709525
-0.17407589 -0.063112855 -0.04174066 -0.08316514 -0.07914098 0.105661504 -0.08261931 -0.0018784007
0.06284501 -0.015646476 0.0031752514 0.113016985 0.0232904 -0.07298879 -0.076981 0.077554375
0.071699835 0.059547447 -0.080332935 -0.069171 -0.043374904 -0.048896622 -0.0398858 -0.056793988
0.088045746 -0.041532256 0.026775805 -0.11345561 -0.02160888 -0.13638175 -0.08626835 -0.05005591
-0.08824163 0.015500244 -0.030678468 0.04712264 0.025267046 0.01111642 0.057423048 0.04606949
-0.05913184 -0.069766246 -0.1193341 -0.049898516 0.1137203 0.07256667 -0.032911345 -0.037181232
-0.09940609 -0.040048793 0.07665306 -0.05625343 0.0699127 -0.056912743 -0.027147906 -0.028573489
0.031893376 0.0844328 0.03148634 -0.029411891 -0.10007645 -0.055409443 -0.14215603 0.053505674
-0.05979258 -0.0465219 -0.12663092 -0.050182857 -0.024217542 -0.10858823 -0.013725387 -0.04550699
-0.057124376 0.046286575 -0.016729848 -0.14873952 0.067269206 0.045706768 0.0028186445 -0.011189009
-0.061531916 -0.10949962 -0.15638845 -0.121823676 0.070203364 -0.08860383 -0.11103175 0.0036055539
-0.07592546 -0.039665 0.03433397 0.0020500387 0.01820751 -0.06367667 -0.06513045 0.045768727
0.08615787 -0.07274146 -0.07292211 0.041778237 0.07936346 -0.02873942 0.028468143 -0.061853763

res2.fc2.bias f4 [128]
00000000: c2ee 55bd 7de0 77bd cdd3 85bd 5c85 d5bc
00000010: f1ec 94bd 00af 923d 6562 28bc bc91 de3a
00000020: 552e c33c fdd6 2a3d 194e 85bc 2d37 183d
00000030: 26a8 1fbc 2fa6 543b fe6a 683d 49d8 753d
00000040: f2d5 a3bd 4b89 c5bd 6ff2 76bc 7416 13bc
00000050: c1e7 0d3d dd91 f73b a5ea 803d 560a e5bc
00000060: 0e0e 343d c981 27bd 9444 bbbd ad73 8c3d
00000070: d1df f3bb c894 84bd dea3 903c 2d93 a93d
00000080: d3a0 003d 3390 a6bd 0e0b dbbc c980 123d
00000090: 4936 823d cc5c 723b 1e3e 243d 63b8 40bd
000000a0: 0e3f 86bc b930 903b e657 5ebd 8789 edba
000000b0: 445b febc 8e9f 193c bab1 c1bb a930 b63c
000000c0: 4df5 62bc 43ef 1cbd da41 cebc 72fe b03d
000000d0: 8cdf d63c 10e7 9b3d be95 eb3c 0e70 e0bc
000000e0: 389a fc3c 42ee 0a3c 18a8 f5bc a31f 983d
000000f0: e909 d23c 74b9 773d 5602 373b ce9b b73c
00000100: 53b0 6ebd 115e 26bd baa2 cebc bdd3 413c
00000110: 743a 893c 91b2 043d b947 283c b57f 1dbd
00000120: 778c 613d adbe 3d3d 9548 663d 85d9 723d
00000130: 0310 18bc dbd5 78bd 66a9 50bd 34fa 743b
00000140: 43ae 98bb e882 70bc ecc6 77bd 438e 0fbd
00000150: a887 6c3c f80c fabc 5f94 383d 80f2 7e3d
00000160: 9686 f8bb 9be8 73bc 182d f63c b55c 873d
00000170: a77d c03d 0e16 10bd ad17 70bb a5a2 473d
00000180: 14b8 cd3d 1e95 5b3d dbe6 08bd ee1d b93d
00000190: 881d e2bc ff57 4c3c e9a5 01bd 578f 9a3d
000001a0: b760 ca3d 1490 15bb e843 a0bd de5c 1ebd
000001b0: f522 813d 0c5c 6b3d d604 c13d b933 663c
000001c0: e1b2 b33d 8f49 193c 539e 8a3c 9eaf 0dbd
000001d0: 598b 21bb 744a 723c aa04 89bd 7f35 f2bc
000001e0: e5b1 533d f046 c53c 72c8 b9bd 4053 af3c
000001f0: 5f07 bcbd bdbd 8ebd 1adc debc c453 333c
-0.05222965 -0.060516823 -0.065345384 -0.026064567 -0.072717555 0.07162285 -0.010277365 0.0016980688
0.023825804 0.041708935 -0.016272591 0.037161995 -0.00974468 0.0032447686 0.05674266 0.06002072
-0.07999791 -0.09645327 -0.015072449 -0.008977521 0.034644846 0.00755523 0.06294755 -0.02795903
0.043958716 -0.040895257 -0.091439396 0.06858001 -0.0074424525 -0.0647369 0.017656263 0.08280025
0.031403374 -0.081329726 -0.02673867 0.03576735 0.0635801 0.003698158 0.040098302 -0.047050845
-0.016387489 0.0044003394 -0.054283045 -0.0018122651 -0.031049378 0.00937642 -0.0059110792 0.02224
-0.01385243 -0.038314115 -0.025177885 0.086422816 0.026229642 0.07612431 0.028757926 -0.027397182
0.030835256 0.008479657 -0.02998738 0.07427909 0.025639491 0.060479596 0.0027924976 0.02241316
-0.058273625 -0.040617052 -0.025224078 0.0118302675 0.016751505 0.032396857 0.010271006 -0.03845187
0.0550656 0.04632442 0.056221563 0.059289474 -0.009281161 -0.060750823 -0.0509428 0.0037380578
-0.0046594455 -0.014679648 -0.06049244 -0.03504778 0.01443664 -0.030523762 0.045063373 0.062242985
-0.0075844033 -0.014887 0.0300508 0.06609479 0.09398966 -0.035177283 -0.0036635206 0.048739094
0.10044876 0.053609006 -0.033423286 0.09038912 -0.027601972 0.012472152 -0.031652365 0.07546871
0.09881728 -0.0022821473 -0.07825452 -0.038662784 0.06305496 0.05746083 0.094247505 0.014050418
0.08774353 0.009355917 0.016921198 -0.03459131 -0.0024649708 0.014788259 -0.06690343 -0.029566525
0.051683325 0.024081677 -0.09071435 0.021402001 -0.091810934 -0.069697835 -0.027204562 0.010945264
