saved_models/triplet_model.pt (torch, 160537 bytes, 4 tensors)

fc.0.weight f4 [256, 89]
0	0x3d94d5e9	0.072673626
1	0xbdc44fbd	-0.09585521
2	0xbd666300	-0.056246758
3	0x3d2e6028	0.04257217
4	0x3d6e67f7	0.058204617
5	0x3cb839b0	0.022488445
6	0x3db517bd	0.08842418
7	0x3d8450a2	0.06460692
8	0x3d9e5d2b	0.07732614
9	0x3d9ce2af	0.07660424
10	0x3dc0c9d8	0.09413499
11	0x3d411715	0.047141153
12	0xbcd2a994	-0.025715627
13	0x3ddcdb4f	0.10784017
14	0x3db3b3f8	0.08774561
15	0xbd3e3e54	-0.04644616
16	0xbd52d621	-0.05147374
17	0x3ce8b511	0.028406652
18	0x3ce13bf9	0.027494418
19	0xbd0dc5ab	-0.03461234
20	0x3d9b6e49	0.075893946
21	0xbcd568cb	-0.026050946
22	0xbd06ed45	-0.03294112
23	0x3cc27d24	0.023741312
24	0x3d67f333	0.056628417
25	0x3c95a591	0.018267425
26	0x3d77bd91	0.06048352
27	0x3d36914f	0.04457217
28	0x3cebfc58	0.02880685
29	0xbdada433	-0.08478584
30	0x3d21c6b8	0.039496154
31	0x3d6740a3	0.056458127
32	0x3cb8c40e	0.022554424
33	0xbd54d9ed	-0.051965643
34	0xbd39e697	-0.045385923
35	0xbd2f27b6	-0.04276248
36	0xbc3eaf14	-0.011638422
37	0x3cdad272	0.026711676
38	0x3d576b27	0.052592423
39	0xbc4ba9dd	-0.012430635
40	0x3c0fab4d	0.008768869
41	0xbd5405f0	-0.051763475
42	0xbc225913	-0.009908932
43	0x3cee8448	0.029115811
44	0x3dcb303b	0.099213086
45	0xbc47f911	-0.012205378
46	0x3d0350bc	0.032059416
47	0xbc43415d	-0.011917439
48	0x3c257349	0.010098287
49	0x3d399a90	0.045313418
50	0x3d3a33ab	0.04545943
51	0x3d021061	0.0317539
52	0x3d058f9f	0.03260767
53	0xbdb9bb54	-0.09068933
54	0xbd423fa6	-0.04742398
55	0xbd198c02	-0.037487037
56	0x3da93a04	0.08263019
57	0x3d5744fc	0.052556023
58	0xbdad558b	-0.08463582
59	0xbd8a246f	-0.067452304
60	0xbd8b5b57	-0.06804531
61	0xbbaaa8bc	-0.005208103
62	0xbc075733	-0.008260536
63	0x3cbfc897	0.023411078
64	0xbddc144b	-0.10746058
65	0x3da6fede	0.08154081
66	0x3ce55231	0.027993293
67	0x3d96d060	0.07363963
68	0x3c6d7813	0.01449396
69	0xbd7f139e	-0.062274568
70	0xbd903b2d	-0.07042537
71	0xbd998716	-0.07496469
72	0xbd9105e2	-0.070812
73	0x3dd92338	0.106024206
74	0xbdd2fab1	-0.10301722
75	0xbdcacfc4	-0.099029094
76	0xbd76b8fb	-0.060235005
77	0x3a893b22	0.0010469893
78	0xbdbd526e	-0.09244238
79	0x3c21f191	0.009884254
80	0xbdd4e000	-0.10394287
81	0xbb52b615	-0.0032151986
82	0xbd570fe0	-0.052505374
83	0x3ddbd41b	0.10733815
84	0x3d55aae5	0.05216493
85	0x3d586201	0.05282784
86	0xbd91a618	-0.07111758
87	0xbd9ae314	-0.07562843
88	0xbd6541ab	-0.05597083
89	0x3db1a9f7	0.08674996
90	0x3de8f2cf	0.11374437
91	0xbdd45b7d	-0.103690125
92	0x3ddc3bbe	0.107535824
93	0xbd05bc62	-0.03265036
94	0xbd695fb8	-0.05697605
95	0xbc2780de	-0.010223595
96	0x3dce78ee	0.10081659
97	0x3c608d87	0.013705618
98	0xbb269c80	-0.002542287
99	0x3ca84837	0.020542247
100	0x3d935012	0.071930066
101	0x3cc60508	0.024172321
102	0xbdbe4c4c	-0.09291896
103	0xbdd20631	-0.10255087
104	0x3dcdc7b6	0.100478575
105	0x3c7f763b	0.015592153
106	0x3d95e56d	0.0731915
107	0xbd8cc1c9	-0.06872899
108	0x3d0ccab6	0.034373008
109	0x3d7e4fab	0.062087696
110	0xbcb435ab	-0.021998247
111	0x3c29a32c	0.010353845
112	0xbd8bee80	-0.068326
113	0xbd15c01b	-0.03656016
114	0x3d177f32	0.036986537
115	0x3cca2702	0.024676803
116	0xbce17c20	-0.027525008
117	0xbd8e7342	-0.069555774
118	0xbdb5caa1	-0.08876539
119	0x3c957b2d	0.018247211
120	0xbcfa6b7e	-0.030568834
121	0x3d906a34	0.07051507
122	0x3ce23540	0.027613282
123	0x3dbc3f8d	0.09191809
124	0xbd944a01	-0.072406776
125	0xbd5f448e	-0.05450874
126	0x3dc1764d	0.09446392
127	0x3db988fd	0.090593316
128	0xbbe0ea65	-0.0068638795
129	0x3da9ad12	0.08284964
130	0x3c0905d9	0.008363211
131	0x3d81450d	0.063119985
132	0x3d67633d	0.056491125
133	0x3dde6871	0.10859764
134	0x3d965729	0.07340843
135	0x3db7b65c	0.08970329
136	0xbda74aa6	-0.08168535
137	0xbdaeef59	-0.08541746
138	0xbdd935d1	-0.10605968
139	0x3ccbc7d1	0.024875553
140	0xbdaa5ca9	-0.08318455
141	0xbc3713ed	-0.011174184
142	0x3d41ccdd	0.047314513
143	0x3dbbc299	0.09167976
144	0x3da6080b	0.08107003
145	0xbd824239	-0.06360287
146	0xbcc96cc1	-0.02458799
147	0x3d5b5abf	0.05355334
148	0x3dd2edd3	0.102992676
149	0xbcca1d7e	-0.024672266
150	0xbc4556af	-0.012044593
151	0xbd0ace7c	-0.033888325
152	0xbd85888a	-0.065201834
153	0x3d18452e	0.03717535
154	0xbc8cbff2	-0.01718137
155	0xbcc6cd27	-0.024267746
156	0xbcf88d38	-0.030340776
157	0xbd6e4a20	-0.05817616
158	0xbbfe1cef	-0.007754914
159	0xbd618cfa	-0.055066086
160	0x3d85daed	0.065358974
161	0xbcbdf954	-0.023190178
162	0xbdb8e5f5	-0.09028236
163	0x3d50f14e	0.051011376
164	0x3dbf0940	0.09327936
165	0x3b48b9f9	0.0030628426
166	0x3d71866c	0.058966085
167	0x3dcf07c1	0.10108901
168	0x3d34c4ac	0.044132873
169	0x3dab105d	0.083527304
170	0xbd84854b	-0.06470736
171	0xbdca0bd3	-0.098655365
172	0x3d8bd2a8	0.06827289
173	0x3c0dbfb7	0.008651665
174	0x3d92c038	0.07165569
175	0xbdd18572	-0.10230531
176	0xbd6c1ef8	-0.05764672
177	0xbd4f22c5	-0.05057027
178	0xbcbca036	-0.023025613
179	0x3dd2e67f	0.1029787
180	0xbd96f6ee	-0.07371317
181	0x3d85091c	0.06495878
182	0x3d04e27d	0.03244256
183	0xbd71a6bd	-0.058996905
184	0x3d6e25ef	0.058141645
185	0x3dabc874	0.08387843
186	0xbb90884e	-0.00441078
187	0x3db0d21a	0.08633824
188	0x376b138f	1.4011645e-05
189	0xbc4fc903	-0.012682202
190	0x3ce35865	0.02775211
191	0x3ca04c1b	0.01956754
192	0x3d0fb995	0.035089094
193	0xbc73254d	-0.014840436
194	0x3cf045bb	0.029330125
195	0x3d966640	0.073437214
196	0x3d840a00	0.0644722
197	0xbd38ee36	-0.04514905
198	0x3da4532c	0.08023676
199	0xbd7bb309	-0.061450038
200	0xbce0d95f	-0.0274474
201	0x3d51fecc	0.051268384
202	0xbd8d6a54	-0.06905046
203	0x3d5614d7	0.05226597
204	0x3ca4359a	0.02004509
205	0x3cbcd4be	0.023050662
206	0x3d6508bb	0.05591653
207	0xbdc1feef	-0.09472453
208	0xbd171ed3	-0.03689463
209	0x3d4115c0	0.047139883
210	0x3d8f3482	0.06992437
211	0xbddcfc2e	-0.10790287
212	0xba278e49	-0.00063917466
213	0xbdaa8437	-0.08325999
214	0xbccadfd8	-0.02476494
215	0xbd54cb28	-0.051951557
216	0xbda0fc02	-0.07860567
217	0xbda937b1	-0.082625754
218	0x3c69ccfe	0.014270065
219	0x3c91f0b0	0.017814964
220	0xbd9be1b0	-0.07611406
221	0x3dc0bff3	0.094116114
222	0x3d6de443	0.058079015
223	0x3dc2bc8b	0.09508618
224	0x3ddded66	0.10836296
225	0x3dc1c958	0.094622314
226	0x3d0910ce	0.03346329
227	0xbbc5ee68	-0.006040383
228	0x3dcccec4	0.10000375
229	0x3d1de888	0.038551837
230	0xbde85740	-0.113447666
231	0xbdd0b0b8	-0.101899564
232	0x3c7c5caf	0.015402957
233	0xbd0f895b	-0.0350431
234	0xbdc30bf4	-0.09523764
235	0xbbdedb3d	-0.0068010376
236	0xbd18b523	-0.03728212
237	0xbd28ab7c	-0.041179165
238	0xbdae5cd0	-0.08513796
239	0xbd4c2a00	-0.04984474
240	0x3d041bdd	0.032253135
241	0xbd440663	-0.047857653
242	0xbdb43603	-0.087993644
243	0x3b3d696b	0.0028901945
244	0x3b3212b3	0.002717179
245	0xbda49307	-0.08035856
246	0xbdab23de	-0.083564505
247	0x3dd30645	0.1030393
248	0xbb1fd8be	-0.0024390663
249	0x3d8df82a	0.06932099
250	0xbd8202b4	-0.06348172
251	0xbdad388b	-0.0845805
252	0xbd08a52d	-0.03336065
253	0xbda50a8b	-0.080586515
254	0x3dc8ef65	0.09811286
255	0x3d913fb1	0.07092226

fc.0.bias f4 [256]
0	0xbce0b95b	-0.027432134
1	0xbdadbe13	-0.084835194
2	0x382b82de	4.0891457e-05
3	0xbdc44328	-0.095831215
4	0xbd8abacb	-0.06773909
5	0xbd96e143	-0.07367184
6	0x3d21ef27	0.039534714
7	0xbdbe540f	-0.09293377
8	0x3d453e67	0.048155215
9	0xbce07505	-0.02739955
10	0xbd4c2e4a	-0.049848832
11	0xbd967449	-0.073463984
12	0xbdd1010c	-0.10205278
13	0xbda37432	-0.07981147
14	0xbdd90f15	-0.1059858
15	0x3dd80219	0.10547275
16	0xbddf88f3	-0.10914793
17	0x3de597a4	0.11210564
18	0x3c8b4bd1	0.017003926
19	0x3d6ff3b7	0.058582034
20	0x3d26562a	0.040609516
21	0x3ce28432	0.027650926
22	0x3dafb7f1	0.08580006
23	0xbd6ef05a	-0.058334686
24	0xbadfe4d9	-0.0017081752
25	0x3db3e2e1	0.08783508
26	0xbd9a51b7	-0.07535117
27	0xbc989ce8	-0.018629506
28	0xbdae880d	-0.085220434
29	0x3d92ee70	0.071743846
30	0x3d60caf9	0.05488107
31	0x3dc6ccd3	0.09707036
32	0xbc716566	-0.014733648
33	0xbd734646	-0.05939319
34	0xbbdc6b70	-0.0067266747
35	0xbd31ec7b	-0.043438416
36	0xbde18fe4	-0.11013773
37	0xbc9e4b81	-0.019323112
38	0xbc996ba2	-0.018728081
39	0xbd64adbd	-0.055829752
40	0x3dc36aea	0.095418766
41	0xbddb0745	-0.10694746
42	0x3c8fea81	0.017567875
43	0xbd72e7e6	-0.059303187
44	0xbd81d913	-0.06340232
45	0xbdde2f67	-0.10848885
46	0x3d61931a	0.055071928
47	0xbce2a8ea	-0.027668435
48	0x3de604c2	0.11231376
49	0x3db88d78	0.09011358
50	0xbd4757e9	-0.048667822
51	0x3dbe3fc3	0.09289505
52	0x3cadf906	0.021236908
53	0x3d672af0	0.056437433
54	0xbdaf677e	-0.085646614
55	0xbc87897a	-0.016545046
56	0x3db557f5	0.08854667
57	0x3a7d8842	0.0009671488
58	0x3dd8c87e	0.10585116
59	0xbcb44359	-0.02200477
60	0x3d999883	0.074997924
61	0xbdc90ae1	-0.09816528
62	0x3cd95b7e	0.026532885
63	0xbc871bb6	-0.016492706
64	0xbd198ab5	-0.037485797
65	0xbd88ba50	-0.06676161
66	0x3d8fb35a	0.070166305
67	0x3b60c7e7	0.0034298839
68	0xbceb9f6b	-0.02876254
69	0x3cdf99db	0.027295044
70	0x3ad01ac4	0.0015877117
71	0xbd8f73b6	-0.07004492
72	0xbdbf7c07	-0.09349828
73	0xbdc2dcc8	-0.09514767
74	0xbddd3170	-0.10800445
75	0x3ba8bf70	0.0051497743
76	0x3c4bd1ec	0.012440186
77	0x3d93d064	0.07217482
78	0x3d0cb7d4	0.034355
79	0x3d965aae	0.073415145
80	0xbdc79b61	-0.09746433
81	0xbda303d8	-0.079597175
82	0xbd9492cd	-0.072545625
83	0x3d9b1e87	0.07574182
84	0x3c0f7471	0.008755789
85	0x3c8be511	0.017077
86	0x3d517d74	0.051145032
87	0x3cbde04b	0.02317824
88	0x3d17eb93	0.037089895
89	0x3da3b656	0.07993762
90	0xbcfe867f	-0.031069992
91	0x3daef32a	0.085424736
92	0x3d5a49cf	0.053293046
93	0x3caea77b	0.021320095
94	0xbd35eb35	-0.044413764
95	0xbcdfa74b	-0.027301451
96	0x3d007180	0.031358242
97	0x3b879ee6	0.004138815
98	0x3db6c33d	0.089239575
99	0xbdc6b570	-0.09702575
100	0x3da0cc87	0.078515105
101	0x3a2c2b8d	0.0006567769
102	0x3d4e0fcf	0.050308045
103	0x3dabcc7e	0.08388613
104	0x3b10b335	0.0022079472
105	0xbd2f7790	-0.042838633
106	0x3d8e9978	0.069628656
107	0xbd769aa2	-0.060206063
108	0xbbde5442	-0.0067849467
109	0x3d872854	0.06599489
110	0xbd0bc125	-0.034119744
111	0xbda07408	-0.07834631
112	0xbd1368b7	-0.035988536
113	0x3da1e674	0.079052836
114	0x3da4c744	0.080458194
115	0xbd264e25	-0.04060187
116	0xbd37c879	-0.04486892
117	0x3da5d844	0.0809789
118	0x3dac3b35	0.0840973
119	0x3cd8f4e7	0.026483966
120	0xbd1f470b	-0.03888611
121	0x3d32db8d	0.04366641
122	0x3d592c99	0.053021047
123	0xbdd72491	-0.10505021
124	0xbd90f332	-0.07077636
125	0xbd26bced	-0.040707517
126	0xbd150003	-0.036376964
127	0x3d910324	0.07080677
128	0x3cb78397	0.022401614
129	0x3c239b3e	0.009985743
130	0xbdc3f65a	-0.09568472
131	0x3dc058fc	0.093919724
132	0xbcc29bcb	-0.023755929
133	0x3d23db05	0.040003795
134	0xbd542478	-0.05179259
135	0x3b9366c5	0.004498335
136	0xbd8b65c6	-0.06806521
137	0x3d064714	0.03278263
138	0x3d48ef57	0.049056377
139	0x3d966a86	0.073445365
140	0xbd3f8365	-0.046756167
141	0x3d081533	0.033223342
142	0xbda6842a	-0.08130677
143	0xbd14b366	-0.0363039
144	0x3d846be7	0.06465893
145	0xbd34bc4d	-0.04412489
146	0x3ccfab42	0.025350217
147	0x3db20061	0.086914785
148	0xbbde17b6	-0.006777729
149	0xbd87d772	-0.0663289
150	0x3da9a33f	0.0828309
151	0x3d7b27a7	0.061317112
152	0x3d97442a	0.07386048
153	0x3d3cb0eb	0.04606716
154	0x3d21b381	0.03947783
155	0x3d415c95	0.047207434
156	0xbd0c08a9	-0.034187946
157	0xbd931f67	-0.07183724
158	0x3d823e22	0.06359507
159	0xbdcd6936	-0.10029833
160	0x3dbc62e8	0.09198552
161	0x3c887c51	0.016660841
162	0xbdac6cdf	-0.08419203
163	0x3db3e9f9	0.08784861
164	0x3d4134e6	0.04716959
165	0x3cae39f0	0.021267861
166	0xbb0e7361	-0.0021736252
167	0x3c75c908	0.015001543
168	0xbdb25faf	-0.087096564
169	0x3d94e77f	0.07270717
170	0xbbd14ec6	-0.0063875644
171	0xbcd21238	-0.025643453
172	0x3d16d8a6	0.036827706
173	0x3d801908	0.06254774
174	0xbd636c79	-0.05552337
175	0x3ddbd932	0.10734786
176	0x3dbd1e15	0.09234253
177	0xbd4ca490	-0.049961627
178	0x3c9f08a6	0.019413304
179	0xbde61abc	-0.11235568
180	0x3d23548d	0.039875556
181	0x3c86041c	0.016359381
182	0x3d5b6526	0.05356326
183	0xbb2cecef	-0.002638634
184	0x3d7f4267	0.062319186
185	0x3d627cbc	0.055294737
186	0xbd8e667f	-0.06953143
187	0x3d38f2ff	0.045153614
188	0x3c1f2b27	0.009714878
189	0x3d349f8d	0.044097472
190	0x3c483889	0.01222051
191	0xbca4670b	-0.020068666
192	0x3de3362f	0.11094319
193	0xbd4aea8d	-0.04954009
194	0x3d60f32a	0.0549194
195	0x3dc007ec	0.09376511
196	0xbbc848bf	-0.0061121876
197	0xbc9fc908	-0.019505039
198	0x3cdd7369	0.02703257
199	0x3dc74a7a	0.09731002
200	0xbd97dfd1	-0.074157365
201	0x3d81d0a2	0.06338622
202	0xbcd5f155	-0.026116053
203	0x3dd2ae0d	0.10287104
204	0x3dd969fc	0.10615918
205	0x3d399334	0.0453064
206	0xbd1eb497	-0.038746443
207	0x3d301427	0.04298797
208	0xbc09860a	-0.008393774
209	0x3d1a977f	0.037742134
210	0xbd875a48	-0.06609017
211	0xbb3e7ee9	-0.0029067344
212	0x3d31506a	0.04328958
213	0x3dc54db0	0.09633958
214	0xbdc27a0e	-0.09495936
215	0xbd6406ea	-0.055670656
216	0x3cdf3a16	0.027249377
217	0xbbf62dd9	-0.0075127897
218	0xbd8b68d3	-0.06807103
219	0xbd9b1556	-0.07572429
220	0x3cf3658a	0.029711504
221	0xbc4e9d5a	-0.012610758
222	0xbd2d9263	-0.042375933
223	0xbd8b9a58	-0.06816548
224	0x3c15d597	0.009145162
225	0xbc68cd21	-0.014209063
226	0xbc701c7f	-0.0146552315
227	0xbd6a5df1	-0.057218496
228	0xbc356e07	-0.011073596
229	0xbc902ab8	-0.017598495
230	0xbd6a2cd2	-0.05717165
231	0xbc96a8ef	-0.0183911
232	0x3b92fc63	0.0044856532
233	0x3d1de951	0.038552586
234	0xbdcfda69	-0.1014908
235	0x3c637013	0.013881701
236	0x3db76098	0.08953971
237	0xbd00d0de	-0.03144919
238	0x3d051446	0.032490037
239	0xbd832f59	-0.06405515
240	0x3d745c04	0.059658065
241	0xbdafbb3f	-0.08580636
242	0xbdc94c33	-0.09828987
243	0xbd39bba4	-0.045344964
244	0xbd8bf2aa	-0.06833394
245	0xbdb4ff6d	-0.08837781
246	0x3d5fa3c7	0.05459955
247	0xbd22a86f	-0.039711412
248	0xbd643fca	-0.055724896
249	0xbd2f08fc	-0.042733178
250	0xbcd28e50	-0.025702626
251	0x3db98541	0.09058619
252	0xbc2b932c	-0.0104721
253	0xbd6d93c6	-0.058002256
254	0x3d4b59d7	0.049646225
255	0x3db1f154	0.08688608

fc.2.weight f4 [64, 256]
0	0x3c9f4509	0.019442098
1	0xbd3c5657	-0.045980778
2	0x3b1176f5	0.0022196148
3	0x3d0ef3ca	0.034900464
4	0x3b54dd05	0.003248037
5	0x3d3252a0	0.04353583
6	0xbd016161	-0.03158701
7	0xbd69ea56	-0.057108246
8	0x3ca93f8c	0.020660184
9	0x3ca9a2e8	0.020707563
10	0xbce5d5b7	-0.028056009
11	0xbc3ae22d	-0.011406464
12	0xbcc6e222	-0.02427775
13	0xbcfb07ae	-0.03064331
14	0xbcf89f90	-0.030349523
15	0xbbd7ae40	-0.0065820515
16	0xbd28a9ae	-0.041177444
17	0x3cc627cf	0.024188904
18	0xbd3cb143	-0.046067487
19	0x3cb73502	0.022364143
20	0xbccdb648	-0.025111333
21	0x3d8a1a7d	0.067433335
22	0x3d0aeebd	0.033919085
23	0x3d88aae0	0.06673217
24	0xbc4cd144	-0.012501065
25	0x3cac0fe7	0.021003677
26	0x3d73ff32	0.059569545
27	0xbc46255c	-0.012093868
28	0x3cd5adc7	0.02608384
29	0x3bc4868c	0.0059974845
30	0xbd3314ee	-0.043721132
31	0xbd502c76	-0.05082365
32	0xbbe5d33e	-0.0070137074
33	0xbcf451e2	-0.029824201
34	0x3d24af2c	0.04020612
35	0x3cefb66d	0.029261792
36	0xbc220678	-0.009889238
37	0x3d362bee	0.04447549
38	0xbca66a74	-0.020314433
39	0x3d4c183d	0.049827803
40	0x3cec2e96	0.028830808
41	0xbc06091e	-0.008180885
42	0xbcb51848	-0.022106305
43	0x3cc70732	0.024295423
44	0x3d54a61d	0.05191623
45	0x3d25e43b	0.04050086
46	0xbd0d7815	-0.034538347
47	0x3c9f5a76	0.019452315
48	0x3c94a402	0.018144611
49	0x3c6fe438	0.014641814
50	0xbd347dba	-0.044065215
51	0xbd7e18e1	-0.062035445
52	0xbbf565e4	-0.007488953
53	0x3c2668ca	0.01015682
54	0x3cf18d71	0.02948639
55	0xbcd04bc8	-0.02542676
56	0x3b8401bd	0.0040285275
57	0x3d14a33f	0.036288496
58	0x3d475cf6	0.04867264
59	0x3d6f1ae7	0.058375265
60	0x3d2685a5	0.040654797
61	0xbd2cb97c	-0.04216908
62	0x3d15ea2d	0.03660028
63	0x3d20932f	0.039202865
64	0x3d16cf44	0.036818758
65	0xbcade978	-0.02122949
66	0x3c108c6b	0.008822541
67	0xbd51c083	-0.051208984
68	0x3d432d94	0.04765089
69	0x3b294790	0.0025830008
70	0x3c61b81b	0.013776804
71	0x3d431e2c	0.047636196
72	0xbba220d2	-0.00494776
73	0xbd24ddea	-0.040250696
74	0xbcee7cb1	-0.029112192
75	0xbca193d5	-0.019723812
76	0x3cda2888	0.026630655
77	0xbd361c76	-0.044460736
78	0xbd575527	-0.052571442
79	0x3d4dfd5b	0.050290447
80	0x3c970ee0	0.01843971
81	0x3c907c75	0.01763747
82	0x3d3f355e	0.046681754
83	0xbc0a36fa	-0.008435959
84	0xbd7ce5b7	-0.06174251
85	0x3c1b7efc	0.009490725
86	0x3b1095d2	0.0022061956
87	0x3d50e909	0.05100349
88	0xbc5322e1	-0.012886734
89	0xbab585fb	-0.0013849133
90	0x3d512999	0.05106506
91	0xbd5fefd8	-0.054672092
92	0xbd6525c2	-0.05594421
93	0xbcc67a52	-0.024228249
94	0x3d7a0e63	0.061048876
95	0x3d7da66f	0.0619263
96	0x3d25a3d0	0.040439427
97	0xbd001b69	-0.03127614
98	0x3d02a256	0.031893097
99	0x3c388919	0.011263155
100	0x3d514411	0.051090304
101	0xbb6958c8	-0.0035605896
102	0xbcaf9c06	-0.021436702
103	0x3b110748	0.0022129584
104	0x3d7f12c9	0.062273774
105	0x3ae4ab8c	0.0017446144
106	0x3d1f8d27	0.038952973
107	0xbd036471	-0.03207821
108	0xbd4b4d4f	-0.049634274
109	0x3d24adde	0.040204875
110	0x3c786d98	0.015162848
111	0x3c78f12b	0.015194218
112	0x3d5946b7	0.053045955
113	0xbcad3471	-0.02114317
114	0x3d20da89	0.03927091
115	0xbd0dac5a	-0.034588195
116	0x3ced15ed	0.02894112
117	0xbd4116f5	-0.047141034
118	0xbd0238a3	-0.031792294
119	0xbc9b08b5	-0.01892505
120	0xbd2d4632	-0.04230327
121	0xb85af936	-5.2207346e-05
122	0x3cc21b43	0.02369464
123	0x3d5d8b39	0.05408785
124	0xbd8941a3	-0.06701972
125	0xbd8f2224	-0.06988934
126	0xbd5facb5	-0.054608066
127	0x3d23a547	0.039952543
128	0x3d39902d	0.045303512
129	0xbc6c8527	-0.014436043
130	0x3cf68bd3	0.03009597
131	0x3cea64a7	0.028612448
132	0xbc2901f6	-0.010315409
133	0xbb1ec6ef	-0.002422746
134	0x3cb164f8	0.021654591
135	0x3d31c327	0.043399002
136	0xbd6e23f1	-0.058139745
137	0xbd57f512	-0.05272395
138	0x3d2c84a9	0.042118702
139	0x3cc6e6e3	0.024280017
140	0x3cf95e53	0.030440485
141	0x3d042798	0.032264322
142	0x3c8464e9	0.016161399
143	0xbcbcf78e	-0.023067262
144	0x3d562d7e	0.05228948
145	0xbcdab7ea	-0.026699025
146	0x3cd91b5e	0.026502308
147	0x3d260bef	0.040538725
148	0xbb1005ae	-0.0021976042
149	0xbcc6b8b0	-0.024257988
150	0xbd6438e2	-0.05571831
151	0x3bf43836	0.00745299
152	0x3cd8247d	0.026384586
153	0x3d2dd2d4	0.04243739
154	0x3d243935	0.04009362
155	0x3b4efc2e	0.0031583416
156	0xbce7c070	-0.028290004
157	0x3c680b4b	0.014162849
158	0x3d6136ef	0.05498403
159	0xbd51b879	-0.051201317
160	0xbb734f05	-0.0037125957
161	0xbd7ddcb1	-0.061978046
162	0xbd6fdb46	-0.058558725
163	0xbc8daeed	-0.017295325
164	0x3cf82b90	0.03029421
165	0x3ccee46d	0.025255406
166	0x3c8a00a8	0.016846016
167	0x3d741c6d	0.05959742
168	0x3d0b8eb7	0.03407165
169	0xbc8be4cf	-0.017076878
170	0x3d872346	0.06598525
171	0xbce60fa0	-0.028083622
172	0x3d2d8c1f	0.042369958
173	0x3c581764	0.0131891705
174	0xbcdb474d	-0.026767397
175	0x3d42c97d	0.047555435
176	0xbbe1de7e	-0.006892978
177	0xbc2500d9	-0.010071003
178	0xbce0e44a	-0.027452607
179	0x3d690e8a	0.05689863
180	0x39aa8b23	0.00032528592
181	0xbd2dfd40	-0.042477846
182	0xbbfead06	-0.007772091
183	0xbd243924	-0.040093556
184	0x3cfa2080	0.030533075
185	0xbd1962d4	-0.037447765
186	0x3d8668c2	0.0656295
187	0xbb853727	-0.0040654126
188	0xbd257638	-0.040395945
189	0xbd125a4b	-0.03573064
190	0x3c8efe3b	0.01745521
191	0x3d2b895b	0.04187904
192	0x3d734201	0.059389118
193	0x3d4febca	0.050761975
194	0x3d709f5b	0.058745723
195	0x3cf5344f	0.02993217
196	0xbd8136a7	-0.06309252
197	0x3ce34165	0.027741143
198	0xbcb37f85	-0.021911392
199	0x3cc3b15a	0.023888279
200	0xbd5c927b	-0.053850632
201	0xbd5d9022	-0.054092534
202	0x3d0e2bd1	0.034709755
203	0xbc935759	-0.017985987
204	0xbc71aad1	-0.014750198
205	0x3c9ca4d4	0.019121565
206	0xbcc73002	-0.024314884
207	0x3c88967b	0.016673317
208	0xbb969ac2	-0.0045960853
209	0x3b603c36	0.0034215576
210	0xbd69b39e	-0.057056062
211	0x3c908eca	0.017646212
212	0x3d880c19	0.066429324
213	0xbb4d36be	-0.0031313146
214	0xbbe451f0	-0.0069677755
215	0xbc9f3312	-0.019433532
216	0xbd3a0621	-0.045416
217	0x3ceff42b	0.029291233
218	0x3d15e27c	0.036592945
219	0x3cf8ed20	0.030386508
220	0x3b0be6ef	0.0021347364
221	0x3c4a97cb	0.012365292
222	0x3d2cad48	0.04215744
223	0xbccb75a4	-0.024836369
224	0x3d13e8e9	0.036110792
225	0xbd0d4be1	-0.034496192
226	0x3c56f407	0.013119704
227	0x3d605329	0.054766808
228	0x3d009f7b	0.031402092
229	0xbcbb9f9c	-0.022903256
230	0x3cc577ea	0.024105031
231	0x3d893015	0.06698624
232	0xbd59b848	-0.05315426
233	0xbcf04be4	-0.029333062
234	0x3d0194f6	0.0316362
235	0xbce54a64	-0.027989574
236	0x3cafc8f9	0.021458136
237	0x3d42a18b	0.04751734
238	0x3c5a4871	0.013322935
239	0xbbb12228	-0.005405683
240	0x3d27ba12	0.040948935
241	0xbd2e2f5a	-0.042525627
242	0xbc670ffe	-0.014102934
243	0xbd468a9a	-0.048472025
244	0x3ccd06cf	0.02502766
245	0xbd30feda	-0.043211795
246	0x3c390213	0.011291998
247	0xbd090a1c	-0.033456907
248	0x3ac92eca	0.0015349027
249	0xbcf3d5f0	-0.0297651
250	0x3d00bdb4	0.031430915
251	0xbd2a973f	-0.041648146
252	0xbb8a60e1	-0.0042229746
253	0xbd7c782c	-0.061638042
254	0x3ca7cf68	0.020484641
255	0x3d58f76e	0.052970342

fc.2.bias f4 [64]
0	0x3c4e1045	0.012577121
1	0xbc4823ff	-0.012215613
2	0x3d64682d	0.055763412
3	0xbd01393b	-0.03154872
4	0x3d1f356b	0.038869303
5	0x3cb9bc2c	0.022672735
6	0x3cbf1c0f	0.023328809
7	0xbd03b4ae	-0.03215473
8	0x3d025ec1	0.031828646
9	0xbd16b394	-0.036792353
10	0x3d32a788	0.0436168
11	0x3d0d48ae	0.03449314
12	0xbd5f33f2	-0.0544929
13	0x3d0c602f	0.034271415
14	0x3d1b6720	0.037940145
15	0x3d4e9876	0.050438367
16	0x3d6b7522	0.057484753
17	0x3c5dc9af	0.013536855
18	0x3ca0b0de	0.019615587
19	0x3d0c5724	0.03426279
20	0xbd15417c	-0.036439404
21	0x3cc2d73e	0.023784276
22	0xbd0f2613	-0.03494842
23	0xbc89fb68	-0.016843513
24	0x3d7d8b8d	0.061900664
25	0x3c08d5fe	0.008351801
26	0xbd1b67fd	-0.037940968
27	0x3c98ce4c	0.018653058
28	0x3affe487	0.0019523063
29	0x3d62b6ab	0.055349987
30	0x3d503f61	0.050841693
31	0x3cafe078	0.02146934
32	0xbd4eba79	-0.050470803
33	0xbc8d0f4a	-0.017219204
34	0xbd1e15d5	-0.03859504
35	0xbaabfb93	-0.001312124
36	0xbd2f4388	-0.042789012
37	0x3ce37114	0.02776388
38	0x3c1be056	0.009513935
39	0x3cd2af87	0.025718464
40	0x3ca1a603	0.01973248
41	0x3d6c166c	0.05763857
42	0x3d554344	0.052066103
43	0xbd434105	-0.04766943
44	0x3cf8bed3	0.03036443
45	0x3d08ca69	0.03339616
46	0xbd5c4d4f	-0.053784665
47	0xbbb14ab8	-0.0054105185
48	0x3cc62d21	0.024191441
49	0x3b54263a	0.0032371418
50	0x3d524724	0.051337376
51	0xbd5a932d	-0.053363014
52	0xbd1a0557	-0.03760275
53	0xbd4419aa	-0.047876038
54	0x3cb51eb6	0.02210937
55	0x3d2fa131	0.042878333
56	0xbcda407f	-0.026642082
57	0x3d5b1546	0.053487085
58	0xbb21d95e	-0.0024696211
59	0x3d17403a	0.036926486
60	0xbd1152d0	-0.035479367
61	0x3c0f5cd6	0.008750161
62	0x3c1bfc0b	0.009520541
63	0x3d29f82a	0.041496433
